test/models/best_checkpoint.pt (torch, 526841 bytes, 22 tensors)

weight f4 [99, 32]
0	0x3d30540c	0.043048903
1	0xba80b430	-0.0009819325
2	0xbca57aa7	-0.020200087
3	0x3bec5995	0.0072128274
4	0x3d0b70ed	0.03404324
5	0x3b21b2da	0.0024673254
6	0xbb8e210d	-0.004337436
7	0x3c4ae682	0.012384059
8	0xbb582669	-0.0032981879
9	0xbc3a1281	-0.011356951
10	0xbb93e998	-0.0045139305
11	0x3e300449	0.17189135
12	0xbdaa0866	-0.08302383
13	0xbd907e07	-0.07055288
14	0xbb0fb5f6	-0.0021928526
15	0xbc6e5db5	-0.014548709
16	0x3b8abaae	0.0042336797
17	0xbac2cd44	-0.0014862199
18	0x3bf5c282	0.007499994
19	0x3aad3e3d	0.0013217401
20	0x3d544321	0.05182183
21	0xbd0e8a5b	-0.034799915
22	0x3b9f7942	0.00486675
23	0x3c8a071f	0.016849099
24	0xbbc60ef0	-0.006044261
25	0xbef706c9	-0.48247364
26	0xbe61d970	-0.22055602
27	0x3d8ed013	0.06973281
28	0x3c2845b5	0.010270526
29	0xbb84a1d9	-0.004047614
30	0x3e16e313	0.1473506
31	0xbc43c304	-0.011948351
32	0x3da618cd	0.08110199
33	0x3bbc6f98	0.0057506077
34	0xbcdaa401	-0.026689531
35	0xbb70e229	-0.0036755896
36	0xbbcad974	-0.006190473
37	0x3aefee60	0.0018305294
38	0xbc00f4cb	-0.007870863
39	0xba9e3031	-0.0012068806
40	0x3b5f369b	0.0034059647
41	0x3ba71314	0.00509871
42	0x38cec251	9.85904e-05
43	0xbe172f4e	-0.14764139
44	0xbe93bef7	-0.28856632
45	0x3c8fe073	0.01756308
46	0x3ad76006	0.0016431815
47	0x3b55a824	0.003260144
48	0xbbe2c453	-0.0069203763
49	0xbb260887	-0.0025334673
50	0xb859afba	-5.190049e-05
51	0x3b80e69c	0.003933741
52	0x3e02e387	0.12782107
53	0xbd1040a5	-0.0352179
54	0x3a1d9840	0.0006011762
55	0xbe4194d2	-0.18904427
56	0x3baf28aa	0.0053454237
57	0x3d8e5882	0.06950475
58	0x3c67cb51	0.0141475955
59	0xbdf3ba96	-0.11900823
60	0xb91af63c	-0.00014778314
61	0xbb4f4d37	-0.0031631717
62	0xbcdd9355	-0.027047792
63	0xbb5f4f83	-0.0034074492
64	0xbc80db18	-0.015729472
65	0x3b97e1ea	0.0046350854
66	0x3d14c490	0.03632027
67	0xbc0d3942	-0.008619608
68	0x3b9df62d	0.004820606
69	0x3c0f64ee	0.008752091
70	0xbb96e067	-0.0046043876
71	0xbc34b79b	-0.011030103
72	0xbbb05d3e	-0.005382209
73	0x3b53459f	0.0032237542
74	0x3c93b41e	0.018030223
75	0x3e382b79	0.17985334
76	0x3eb9392e	0.36176437
77	0x3bd0a57d	0.006367384
78	0x3b4b63f8	0.0031034928
79	0x3b276507	0.0025542395
80	0xbc60c3fd	-0.013718602
81	0xbb80cab1	-0.0039304127
82	0xbb2c33df	-0.0026276035
83	0xbbb1ea1e	-0.0054295203
84	0xbd28b6ef	-0.041190084
85	0xbd8392e1	-0.06424499
86	0x3a93dddc	0.0011281329
87	0xbe06e438	-0.13172996
88	0xba9ed045	-0.0012116513
89	0x3e222286	0.15833482
90	0x3db0e1e8	0.08636838
91	0xbef9b75b	-0.48772702
92	0xbb58e9ec	-0.0033098413
93	0xbb49e01e	-0.003080375
94	0xbc068fa4	-0.0082129575
95	0xba8c5392	-0.0010706058
96	0xbc841ab8	-0.016126022
97	0xbb97e36b	-0.0046352646
98	0x3e253509	0.16133513
99	0xbc39253a	-0.011300379
100	0x3c6d84c4	0.014496986
101	0x39aa2da8	0.00032458943
102	0x3bc2d811	0.0059461673
103	0xbc0d6d6a	-0.008632043
104	0x3aea8538	0.0017892485
105	0x3c1ee677	0.009698502
106	0x3b3b4fc2	0.0028581475
107	0xbe20a896	-0.1568931
108	0xbe3de465	-0.18544157
109	0xbd6047ba	-0.054755904
110	0x3b4d6491	0.003134046
111	0x3c600c5e	0.013674824
112	0xbaf0cbe1	-0.0018371308
113	0xbb5e335c	-0.0033905124
114	0xbc0af2c6	-0.008480733
115	0xbb966108	-0.0045892037
116	0xbe53bca1	-0.20677425
117	0x3d45f1b7	0.04832622
118	0x3a3e1816	0.0007251514
119	0x3a08b76b	0.00052153197
120	0x3bb7e7cd	0.0056123496
121	0x3c5eb317	0.013592503
122	0xbc82dbb5	-0.015973905
123	0xbddd7bcf	-0.1081463
124	0xbbb4812f	-0.005508564
125	0x3ba426f9	0.0050095287
126	0xbdfb8307	-0.12280851
127	0x3c5d74af	0.013516589
128	0x3cacfeff	0.021117685
129	0xbb96ff51	-0.004608073
130	0x3d612ebe	0.054976217
131	0xbbc4e638	-0.0060088895
132	0xbb5ca350	-0.0033666678
133	0x38a5bd63	7.903089e-05
134	0x3bfe27c4	0.0077562053
135	0xbb71a8c7	-0.003687428
136	0xbb391382	-0.0028240387
137	0x3991c52c	0.0002780346
138	0xbb9e1704	-0.004824521
139	0xbe27b7e1	-0.16378738
140	0xbd1c3653	-0.038137745
141	0xbdc68020	-0.09692407
142	0xbb5c2599	-0.0033591746
143	0x3c042487	0.008065349
144	0x3b3a3bbd	0.0028416954
145	0xb9aef760	-0.00033372175
146	0xbb2e4677	-0.0026592293
147	0xbbcf6ccf	-0.0063301097
148	0x3d31975c	0.04335724
149	0x3cab67da	0.020923544
150	0x3b508981	0.003182024
151	0x3dcf8361	0.101324804
152	0x38694e89	5.562467e-05
153	0xbcad1a90	-0.02113083
154	0x3d31a17d	0.043366898
155	0x3d518046	0.05114772
156	0xb90bd525	-0.00013335476
157	0x3ac7d611	0.0015246292
158	0xbd1523e9	-0.0364112
159	0x3be7e269	0.0070765507
160	0x3d1aa74a	0.037757196
161	0xbba89a54	-0.0051453505
162	0x3d14be51	0.036314312
163	0xba21e8bb	-0.0006176342
164	0xbaed8cda	-0.0018123642
165	0x3a56f3b4	0.0008199767
166	0x3b304e5b	0.0026902172
167	0x3995ddb1	0.00028584668
168	0x3aeb9d47	0.001797595
169	0xbbd8a97e	-0.006612002
170	0xbb910a1e	-0.004426255
171	0x3d391c3b	0.04519294
172	0xbeaed991	-0.34150365
173	0xbd831c23	-0.06401851
174	0x3ba33ce1	0.0049816226
175	0x3b624e47	0.003453152
176	0x3c4307ec	0.011903744
177	0xbbb39bf5	-0.005481238
178	0xbbf6e182	-0.007534207
179	0x3ae565a7	0.0017501608
180	0xbd3b0371	-0.04565758
181	0x3d4ef466	0.050526045
182	0x3bd6a9e0	0.0065510124
183	0x3de4c489	0.111702986
184	0x3acdcc51	0.001570115
185	0x3e64487d	0.22293277
186	0x3de1dd86	0.1102858
187	0x3e235597	0.15950619
188	0x3ad80963	0.001648229
189	0x3b911f62	0.00442879
190	0xbc4d85ff	-0.012544154
191	0x3b3138cc	0.002704191
192	0x3e0640cf	0.1311066
193	0x3ba0f16b	0.0049115918
194	0xbda9b277	-0.082859926
195	0x3ac9ccdf	0.0015396139
196	0x3b0981b9	0.0020981862
197	0x3ae63437	0.0017563169
198	0xbc03d102	-0.008045437
199	0x3927472b	0.00015952873
200	0xbb104abb	-0.00220172
201	0x3b3d108c	0.0028848974
202	0x3be7585b	0.0070600933
203	0xbe0352ec	-0.12824601
204	0x3e0f3dc3	0.13988404
205	0x3e4a5f21	0.19762851
206	0xbbe4b108	-0.0069791116
207	0xbb837223	-0.004011409
208	0xbb87daf8	-0.004145976
209	0x39c5d19a	0.00037730933
210	0x3bda00c1	0.006652922
211	0x39ec248b	0.00045040654
212	0xbdff438c	-0.124640554
213	0xbc299971	-0.010351525
214	0xbbaaebdd	-0.0052161054
215	0xbe3b2bf0	-0.1827848
216	0xba14c2d6	-0.0005674785
217	0x3ed00dab	0.40635428
218	0xbd2033f1	-0.039112035
219	0x3e8c0d1c	0.27353752
220	0xbbedb128	-0.0072537847
221	0xbbbfa772	-0.0058488185
222	0x3df23e42	0.11828281
223	0xbb4aafcc	-0.0030927537
224	0x3de5433b	0.11194464
225	0xbc62e929	-0.013849535
226	0x3c54678c	0.012964141
227	0xbb6983c6	-0.0035631522
228	0x3ce76956	0.02824847
229	0xbc238c7e	-0.009982226
230	0x3bef9969	0.007311989
231	0x3c09825c	0.0083928965
232	0x3be23b8b	0.0069040707
233	0x39b5423f	0.00034572367
234	0xbbde8f17	-0.00679196
235	0xbc066035	-0.0082016485
236	0x3b91aa99	0.0044453857
237	0x3cb0db2c	0.021588884
238	0xbc4c5baa	-0.012473026
239	0x3b809db2	0.0039250487
240	0x3be6031d	0.007019414
241	0x3ac5adad	0.0015081667
242	0xba88c24c	-0.0010433882
243	0xbab1c082	-0.00135614
244	0xbe4cec9a	-0.20012131
245	0xbd0bd5c4	-0.03413941
246	0x3c01b0d7	0.007915697
247	0xbec4f0d8	-0.38465
248	0x3add22b1	0.0016871301
249	0x3ef34615	0.47514406
250	0xbe31a136	-0.17346653
251	0x3e486873	0.19571094
252	0xbc360cb5	-0.011111428
253	0x3bb8cd84	0.0056397337
254	0x3ca83f0b	0.020537874
255	0x3c212d86	0.009837514

weight f4 [64, 320]
0	0x3c9ac308	0.018891826
1	0xbc160190	-0.009155646
2	0x3c0cf188	0.008602507
3	0xbd19253d	-0.03738903
4	0x3d27f074	0.0410008
5	0x3d295642	0.041342027
6	0x3c950478	0.018190607
7	0xbcdb703f	-0.026786922
8	0x3d29da24	0.0414678
9	0x3b8c7a68	0.004287053
10	0x3d06fc80	0.032955647
11	0x3c3af710	0.011411443
12	0x3c890dd4	0.016730227
13	0xbd0c92ca	-0.034319676
14	0xbca1efd8	-0.019767687
15	0xbcbae5d8	-0.022814676
16	0x3b4e0e50	0.0031441636
17	0xbcaddc02	-0.021223072
18	0xbca83494	-0.020532884
19	0x3cbee350	0.02330175
20	0xbd398474	-0.045292333
21	0xbd16da34	-0.03682919
22	0xbc7ab084	-0.015300874
23	0xbc3b3b84	-0.011427764
24	0xbbd22af0	-0.00641381
25	0x3d1cbe82	0.03826762
26	0xbba8a2e0	-0.0051463693
27	0x3d187cc6	0.03722837
28	0x3c9f0a6c	0.01941415
29	0x3ca30ae0	0.019902647
30	0x3d637064	0.055527106
31	0xbce243e3	-0.027620262
32	0x3af5d900	0.0018756688
33	0x3b99c220	0.004692331
34	0xbbb24258	-0.0054400377
35	0x3d57a9a6	0.052652024
36	0x3ca9fb9c	0.02074986
37	0xbb5ec7b0	-0.0033993535
38	0x3c891434	0.016733266
39	0x3ba65cb8	0.005076971
40	0xbbd05368	-0.006357599
41	0xbb6798e0	-0.0035338923
42	0x3b9ff690	0.0048816875
43	0xbce717d1	-0.028209599
44	0x3d07700e	0.033065848
45	0xbd2eb0b0	-0.04264897
46	0xbd463ea7	-0.048399594
47	0xbd16e792	-0.036841936
48	0xbb351320	-0.0027629808
49	0x3d2827f0	0.041053712
50	0x3b6810c0	0.0035410374
51	0x3bafec08	0.0053687133
52	0xbca6d794	-0.020366468
53	0x3b2803b0	0.0025636964
54	0xbd04bc8c	-0.032406375
55	0xbc2e74ec	-0.010647994
56	0x3cfe6a6c	0.031056605
57	0x3c5ff350	0.01366885
58	0x3d34655a	0.04404197
59	0xbc547a2c	-0.012968581
60	0xbd5d70df	-0.05406272
61	0xbbad8720	-0.005295649
62	0x3d100428	0.035160214
63	0xbccbceaa	-0.024878819
64	0x3d493fec	0.049133226
65	0x3c66fe58	0.014098726
66	0x3c1cf2b0	0.009579346
67	0x3c72b668	0.014813997
68	0x3d200af2	0.03907294
69	0x3c85aeb4	0.016318657
70	0x3c7d4ef8	0.015460722
71	0x3cac86a0	0.021060288
72	0x3d57decc	0.05270271
73	0x3d5c84be	0.05383753
74	0x3c9abd2c	0.018889032
75	0x3d4e54be	0.050373785
76	0x3ba186e0	0.0049294084
77	0xbc24fe6c	-0.0100704245
78	0x3b8337d8	0.00400446
79	0x3d0fb772	0.035087056
80	0xbd30299d	-0.043008436
81	0x3d10d57e	0.035359852
82	0xbc2d7504	-0.010586981
83	0x3d025026	0.031814717
84	0x3bf142f0	0.007362716
85	0xbb233760	-0.0024904832
86	0xbd632311	-0.055453364
87	0xbc594748	-0.013261624
88	0xbc57ccbc	-0.013171371
89	0x3d2f5024	0.042801037
90	0x3c11c440	0.008896887
91	0xbcedbe5c	-0.029021434
92	0xbd0b967e	-0.034079067
93	0xbc08dda4	-0.0083536245
94	0x3c7e8bb0	0.015536234
95	0xbca062c4	-0.019578345
96	0xbd421846	-0.04738643
97	0x3d2a8438	0.04163
98	0x3d04d274	0.032427266
99	0xbd4ad6bb	-0.04952119
100	0xbd3053b1	-0.043048564
101	0x3cf0aaa8	0.02937825
102	0x3a1d0fc0	0.00059914216
103	0x3c543810	0.0129528195
104	0x3c4225b8	0.011849813
105	0xbbeef568	-0.0072924383
106	0xbce59bd7	-0.028028412
107	0xbd5243e1	-0.051334266
108	0xbd5bf980	-0.05370474
109	0xbd2aefb8	-0.04173252
110	0x3c94f214	0.018181838
111	0x3c7ce000	0.015434265
112	0x3ca8c264	0.020600505
113	0xbd3086b9	-0.04309723
114	0x3cb69420	0.022287428
115	0x3c2cd528	0.010548867
116	0xbd3bb48e	-0.045826487
117	0xbd0515ea	-0.032491602
118	0xbc840a6a	-0.016118247
119	0x3d63bde6	0.055601023
120	0xbcceed5c	-0.025259666
121	0x3d5a8812	0.053352423
122	0x3d42cc2e	0.047558002
123	0x3d2dc0a6	0.042420052
124	0x3c366b70	0.0111340135
125	0x3d5392ae	0.051653557
126	0xbc045528	-0.008076943
127	0xbd4b28d8	-0.0495995
128	0xbcd596ae	-0.026072826
129	0xbcad8304	-0.021180637
130	0xbc69c6b0	-0.014268562
131	0x3d1e0cf4	0.03858657
132	0xb9717000	-0.00023025274
133	0xbc35d07c	-0.01109707
134	0xbd46b9b6	-0.04851695
135	0xbc0d2484	-0.008614663
136	0x3b515c70	0.0031945966
137	0x3caecfc0	0.021339297
138	0xbc523a80	-0.01283133
139	0xbba1b9d0	-0.0049354807
140	0x3c9869a0	0.018605053
141	0x3d58f6e4	0.05296983
142	0xbd255436	-0.040363513
143	0x3bcb0870	0.006196074
144	0xbc9ea0cc	-0.019363783
145	0xbd47552e	-0.048665218
146	0xbcc6fb18	-0.024289653
147	0xbd5fa741	-0.054602865
148	0x3d23a0c6	0.039948247
149	0xbbc7dce0	-0.0060993284
150	0xbae83f40	-0.0017719045
151	0x3ce6b048	0.02816023
152	0x3d4fb530	0.050709903
153	0x3cf2441c	0.029573493
154	0x3c99f848	0.018795148
155	0xbc9093f8	-0.017648682
156	0x3bf7b1f0	0.0075590536
157	0xbd2ff768	-0.042960554
158	0xbd641f0d	-0.055693675
159	0x3b2b21b0	0.0026112609
160	0xbd463e8a	-0.048399486
161	0x3cd74224	0.026276655
162	0x3d1e5ec6	0.0386646
163	0x3b8a8c90	0.004228182
164	0xbce0a4f5	-0.027422408
165	0xbd49a2fe	-0.049227707
166	0xbd55c778	-0.05219218
167	0xbcbe00a4	-0.023193665
168	0x3c923cd4	0.01785127
169	0xbcb0c63a	-0.021578897
170	0xbcbb05e4	-0.022829957
171	0x3c031308	0.008000143
172	0x3d12838e	0.03576999
173	0x3d02492c	0.031808063
174	0x3c4dc198	0.012558363
175	0xbcb717d8	-0.022350237
176	0x3cb2da58	0.02183263
177	0xbc3b5464	-0.0114336945
178	0x3cd139b4	0.02554021
179	0x3c3ce998	0.011530302
180	0x3c9c7a80	0.019101381
181	0x3d0822ac	0.03323619
182	0x3d11af00	0.035567284
183	0xbd256eb4	-0.040388778
184	0xbd3b9adc	-0.045801982
185	0xbcc092d8	-0.02350752
186	0xbd527dcb	-0.051389497
187	0xbc79992c	-0.015234273
188	0x3c94219c	0.018082432
189	0x3cdd4b6c	0.027013503
190	0xbb1da000	-0.0024051666
191	0xbd1c3512	-0.03813655
192	0x3d50d0e8	0.05098048
193	0xbd1adc8e	-0.037807994
194	0x3d376da6	0.044782303
195	0xbd48cbd6	-0.049022518
196	0x3d278824	0.04090132
197	0xbb7fb8f0	-0.0039020143
198	0x3c223ef8	0.009902708
199	0xbcbf202c	-0.02333077
200	0x3cd359c4	0.02579964
201	0x3d0051ac	0.03132789
202	0xbd1212aa	-0.03566233
203	0xbd3716b4	-0.044699386
204	0x3d4bfa2a	0.049799122
205	0x3b823bb8	0.003974404
206	0xbd2bc9ce	-0.041940503
207	0x3c8db098	0.01729612
208	0xbd49f986	-0.04931023
209	0xbd3eacee	-0.046551637
210	0x3c98f8dc	0.018673353
211	0x3d11f2b8	0.035631865
212	0xbd18524b	-0.037187856
213	0xbbf86a80	-0.007581055
214	0xbd32e27a	-0.043673016
215	0x3bf514d0	0.0074792877
216	0xbd201c40	-0.03908944
217	0x3bb14ad0	0.0054105297
218	0xbcd1bc4c	-0.025602482
219	0xbd443aba	-0.04790757
220	0x3bb27fb8	0.005447354
221	0xbce17045	-0.027519355
222	0x3d2f7356	0.042834602
223	0xbcc9dab4	-0.024640419
224	0x3cfe7d64	0.03106565
225	0x3d40e51a	0.04709349
226	0x3c802ca4	0.015646286
227	0xbd64896b	-0.055795114
228	0x3d532d0c	0.051556632
229	0x3caf3c4c	0.021391056
230	0xbc857e3e	-0.016295549
231	0xbd5d0c79	-0.053966973
232	0x3cc175b8	0.023615703
233	0xbbf5d1e0	-0.0075018257
234	0xbc9cff7a	-0.01916479
235	0xbd2436f0	-0.040091455
236	0x3c3666f0	0.011132941
237	0x3cf2100c	0.029548667
238	0x3d400e4e	0.046888642
239	0x3d49406a	0.049133696
240	0xbcba130a	-0.022714157
241	0x3cf68ecc	0.030097388
242	0x3d285be2	0.04110325
243	0x3d5cf664	0.053945914
244	0xbc042fc8	-0.008068033
245	0x3cbe5e2c	0.023238264
246	0x3c4559f0	0.012045369
247	0xbbb9d558	-0.0056711845
248	0x3d234444	0.039860025
249	0x3c72dee8	0.014823653
250	0x3c1b7c58	0.009490095
251	0x3c239058	0.009983145
252	0x3c5bb390	0.01340951
253	0xbd4722f2	-0.04861731
254	0xbd3583e5	-0.044315238
255	0x3c254be0	0.010088891

bias f4 [64]
0	0x3cde1264	0.027108379
1	0x3d557012	0.05210883
2	0x3d232e3e	0.03983902
3	0xbc22e09c	-0.009941246
4	0xbbf236d8	-0.007391792
5	0x3c9483f4	0.018129326
6	0x3d1dfae8	0.03856936
7	0x3b05b140	0.0020399839
8	0xbc4dcb38	-0.012560658
9	0x3cf4a2e4	0.029862829
10	0xbd17d575	-0.037068803
11	0xbd0f75e1	-0.035024527
12	0xbd223ad8	-0.0396069
13	0xbd53b520	-0.051686406
14	0x3d3ebd42	0.04656721
15	0x3cbf31e4	0.02333922
16	0x3c1641e0	0.009170979
17	0xbc90be80	-0.017668962
18	0x3c6656d8	0.014058791
19	0xbd27be8a	-0.040953197
20	0xbcf25dfb	-0.029585829
21	0x3bb1bae8	0.0054238923
22	0xbd00e093	-0.03146417
23	0xbd0252b6	-0.03181716
24	0x3d03b758	0.032157272
25	0xbcd69dd0	-0.026198298
26	0xbc0be8ac	-0.00853936
27	0xbd43708d	-0.04771476
28	0x3cece010	0.028915435
29	0xbbdbe548	-0.006710682
30	0xbd2c63c9	-0.04208735
31	0xbc789f68	-0.015174724
32	0xbc881efe	-0.01661634
33	0x3d3c8488	0.04602483
34	0xbd3bf7d9	-0.045890663
35	0x3d55e0cc	0.052216336
36	0xbc964ea2	-0.018348042
37	0xbd439b68	-0.04775563
38	0x3d1c8456	0.038212143
39	0xbd09209c	-0.033478364
40	0x3c783358	0.01514896
41	0xbc9706e6	-0.018435907
42	0x3d4c8160	0.04992807
43	0x3d4f7900	0.050652504
44	0xbc602394	-0.0136803575
45	0xbcfa5180	-0.03055644
46	0x3c37aa68	0.011210062
47	0xbaa6b1c0	-0.0012717769
48	0x3ca5eb28	0.020253733
49	0xbd15bedd	-0.036558975
50	0x3cfd9d9c	0.030958943
51	0x3d308502	0.043095596
52	0x3d4b942e	0.049701862
53	0xbce113c5	-0.027475247
54	0xbd2c33e6	-0.04204168
55	0xbca0e92e	-0.019642439
56	0x3d1bb46e	0.038013868
57	0xbd1ea884	-0.038734928
58	0xbd22395a	-0.039605476
59	0xbb59e5a0	-0.003324844
60	0xbcf6ed5d	-0.03014248
61	0xbc99f720	-0.018794596
62	0xbc4099f8	-0.011755459
63	0xbd5128d6	-0.051064335

weight f4 [32, 64]
0	0x3de00156	0.10937755
1	0xbc983550	-0.018580109
2	0x3d4774a0	0.048695207
3	0xbd516844	-0.051124826
4	0xbd473198	-0.04863128
5	0xbd369634	-0.04457684
6	0x3dd1bb32	0.10240783
7	0x3d689150	0.056779206
8	0x3d81cf5c	0.06338379
9	0xbd9328fa	-0.0718555
10	0x3d877d52	0.066157
11	0x3dd0569e	0.10172771
12	0xbd0cc5e0	-0.034368396
13	0x3d2b0120	0.04174912
14	0x3d4c864c	0.049932763
15	0xbd75f548	-0.06004837
16	0xbce2f0a8	-0.027702644
17	0xbd292d9c	-0.041303262
18	0x3df9b01c	0.12191793
19	0xbd4c8038	-0.049926966
20	0xbdfbeb66	-0.12300758
21	0x3d8a14c8	0.06742245
22	0xbd995006	-0.074859664
23	0x3dceccd2	0.1009766
24	0xbdb4df36	-0.088316366
25	0x3de2561e	0.11051582
26	0xbd70c618	-0.058782667
27	0x3de7511e	0.11294769
28	0x3d9367ac	0.07197508
29	0xbd36eee0	-0.044661403
30	0x3de96d58	0.11397809
31	0xbc5241a0	-0.012833029
32	0xbdf5d210	-0.12002957
33	0xbd1332f4	-0.035937265
34	0x3d8615de	0.065471396
35	0xbd38431c	-0.044985875
36	0x3da1fc60	0.07909465
37	0xbd979940	-0.07402277
38	0x3d4ec2b4	0.050478652
39	0x3d904d96	0.07046048
40	0x3d20fccc	0.039303586
41	0xbcb92e68	-0.022605136
42	0x3d960fe6	0.07327251
43	0x3ca7bb90	0.020475179
44	0xbdfb87a8	-0.12281734
45	0xbdb644ae	-0.08899818
46	0x3df05990	0.11735833
47	0x3d983aa4	0.0743306
48	0xbdab70b0	-0.08371103
49	0x3d9595fe	0.07303999
50	0x3dd78b46	0.10524611
51	0x3dc439ca	0.09581335
52	0x3d27dd7c	0.04098271
53	0xbc99ee50	-0.018790394
54	0xbdab030a	-0.08350189
55	0x3d93fd96	0.07226102
56	0x3d8a9630	0.06766927
57	0x3dbd1c26	0.092338845
58	0xbdf76908	-0.1208058
59	0xbda27c16	-0.07933824
60	0x3d33513c	0.043778643
61	0xbd6ad110	-0.057328284
62	0x3d8371c2	0.06418182
63	0xbcb9cd48	-0.022680894
64	0xbd288384	-0.041141048
65	0x3df77d82	0.120844856
66	0x3cdf2be8	0.027242616
67	0xbdccabb8	-0.0999369
68	0xbcbae8e0	-0.022816122
69	0x3d8ce956	0.06880443
70	0xbdcbc6b0	-0.09950006
71	0x3d40c714	0.047064856
72	0x3ca78408	0.0204487
73	0xbdbd401c	-0.092407435
74	0x3dcb656e	0.099314556
75	0xbd88cf74	-0.066801935
76	0xbc259570	-0.010106429
77	0x3d8b7ab0	0.0681051
78	0x3d5ad7e8	0.05342856
79	0xbdb06654	-0.086132675
80	0xbd8692e6	-0.065709874
81	0x3dffbf88	0.124877036
82	0xbbaf2260	-0.005344674
83	0xbd8ffc58	-0.070305526
84	0xbd71fad8	-0.059077114
85	0x3d74e978	0.059792966
86	0xbdd74556	-0.10511272
87	0xbdeb9da0	-0.11504674
88	0x3daea7c2	0.08528091
89	0x3ba07640	0.004896909
90	0xbd555fe4	-0.0520934
91	0xbda8c018	-0.08239764
92	0x3d609394	0.05482824
93	0xbdc5144e	-0.096230134
94	0xbda00d66	-0.078150555
95	0x3ce84e50	0.028357655
96	0xbc244fa0	-0.01002875
97	0x3d0571f0	0.032579362
98	0x3ddd2fc0	0.10800123
99	0xbd059924	-0.03261675
100	0x3c4a08e0	0.0123312175
101	0x3db9dff8	0.09075922
102	0xbda240de	-0.07922529
103	0xbc9fbc00	-0.019498825
104	0xbd831266	-0.063999936
105	0x3cf84d40	0.030310273
106	0xbd0beacc	-0.034159467
107	0xbc9f6668	-0.01945801
108	0xbd4251ac	-0.04744117
109	0xbae8f180	-0.0017772168
110	0xbc593590	-0.013257399
111	0x3db9d3da	0.090736106
112	0xbcf0d9a0	-0.029400647
113	0x3dcbcd98	0.09951323
114	0xbd9f1ab4	-0.07768765
115	0x3d0f6944	0.0350125
116	0xbd9afb32	-0.07567443
117	0x3d4008bc	0.04688333
118	0xbd9f58fa	-0.07780643
119	0x3d104f8c	0.03523211
120	0x3d874b4e	0.0660616
121	0xbddb9630	-0.10722005
122	0x3ba10d80	0.0049149394
123	0xbd424f70	-0.04743904
124	0xbdf313cc	-0.1186901
125	0xbd0dcecc	-0.034621045
126	0x3d5e52d8	0.054278225
127	0xbdce3e72	-0.10070504
128	0xbd367854	-0.044548348
129	0xbd4cb3ec	-0.049976274
130	0x3de372b6	0.11105864
131	0x3c9e1b90	0.019300252
132	0x3d25f114	0.040513113
133	0x3d3c0d74	0.045911267
134	0xbc952508	-0.018206134
135	0xbda33622	-0.079693094
136	0x3dc01b56	0.09380214
137	0xbdc04078	-0.093872964
138	0xbc8fedc8	-0.017569438
139	0xbda0e576	-0.07856266
140	0xbd2297f0	-0.03969568
141	0xbaf83b00	-0.0018938482
142	0xbde4025a	-0.11133261
143	0xbdda75d2	-0.10667004
144	0xbd7ad1a0	-0.06123507
145	0x3c4846d0	0.012223914
146	0xbcecf048	-0.028923169
147	0x3d564c34	0.052318767
148	0x3c56eaa0	0.013117462
149	0xbde15b06	-0.110036895
150	0xbac8c200	-0.0015316606
151	0xbc909fc8	-0.017654315
152	0xbdb3a988	-0.0877257
153	0xbd9166da	-0.070996955
154	0xbdea912e	-0.11453472
155	0xbdbc85c2	-0.092052
156	0x3d7dcb4c	0.061961457
157	0xbd6688d4	-0.056282833
158	0x3c351eb0	0.01105468
159	0x3d9d34a8	0.07676059
160	0xbde7c684	-0.11317161
161	0xbd8f818c	-0.07007131
162	0x3dbe3d8c	0.09289083
163	0x3dcfdc34	0.10149422
164	0xbdfe4e26	-0.124172494
165	0xbdda2eb6	-0.10653441
166	0xbd95cff0	-0.073150516
167	0x3d85ddf4	0.06536475
168	0x3d26f6b8	0.040762633
169	0xbc7d0a70	-0.015444383
170	0xbdecfd1a	-0.11571713
171	0x3de1e4c4	0.11029962
172	0xbbf36ca0	-0.0074287206
173	0x3dcf682c	0.10127291
174	0xbd8a0db2	-0.067408934
175	0x3c1277c0	0.008939683
176	0x3d0e6278	0.034761876
177	0x3d2d8d84	0.042371288
178	0x3c6bf5a0	0.014401823
179	0xbcccca98	-0.024998948
180	0x3d198f48	0.03749016
181	0x3d8ad526	0.06778936
182	0x3de6e4cc	0.11274108
183	0x3da721e8	0.08160764
184	0x3d9a3bca	0.07530935
185	0xbcd81598	-0.026377484
186	0x3da77f70	0.08178604
187	0x3c8645e0	0.01639074
188	0x3dd47b28	0.10375053
189	0xbd5021c8	-0.050813466
190	0x3d3d2564	0.046178237
191	0xbc377890	-0.011198178
192	0x3d042300	0.03225994
193	0xbd281938	-0.041039675
194	0x3cc069a8	0.02348788
195	0x3defdbf6	0.11711876
196	0xbc1520f0	-0.009102091
197	0x3d5e0170	0.05420059
198	0xbdcf9db4	-0.10137501
199	0xbd5e0fc8	-0.05421427
200	0xbd532b80	-0.051555157
201	0xbd0513d8	-0.032489628
202	0xbdf42b6c	-0.119223446
203	0xbda0f66c	-0.07859501
204	0xbc4c5d40	-0.012473404
205	0x3df3e816	0.11909501
206	0x3db112cc	0.08646163
207	0x3d856116	0.06512658
208	0x3dd47574	0.10373965
209	0x3cc64260	0.024201572
210	0x3b103c80	0.0022008717
211	0xbde299e2	-0.11064507
212	0x3db10002	0.086425796
213	0xbce1e550	-0.027575165
214	0x3d09b304	0.03361799
215	0x3d15d670	0.036581457
216	0xbdbb7a06	-0.091541335
217	0x3ddcc304	0.10779384
218	0xbd764f40	-0.060134172
219	0xbd59ea3c	-0.0532019
220	0xbdf55c1a	-0.119804576
221	0xbdc1ccc4	-0.09462884
222	0x3de47df4	0.11156836
223	0xbd09b12c	-0.03361623
224	0xbdd0f892	-0.10203661
225	0x3dc26d2a	0.09493478
226	0xbd9ba2d4	-0.075994164
227	0xbdf14b58	-0.11781949
228	0x3de6ec6a	0.11275561
229	0x3cc90c88	0.024542108
230	0xbd74df40	-0.05978322
231	0xbd86e58c	-0.06586751
232	0xbddee17e	-0.10882853
233	0x3dcb724e	0.09933911
234	0x3d9b5e0c	0.075862974
235	0xbdba1b78	-0.090872705
236	0xbd16e79c	-0.036841974
237	0x3da9e640	0.0829587
238	0xbc9279f0	-0.01788041
239	0x3d8dc240	0.06921816
240	0xbd97d376	-0.0741338
241	0x3d8bdf18	0.06829661
242	0xbd7a3948	-0.061089784
243	0xbce12278	-0.027482256
244	0xbdc77ed2	-0.09740986
245	0xbb901960	-0.004397556
246	0x3b17f580	0.00231871
247	0xbd6c0fa8	-0.05763212
248	0x3dd49056	0.103790924
249	0xbd1fbd38	-0.038998812
250	0xbd0536b4	-0.032522872
251	0xbd6e1f38	-0.05813524
252	0x3cccf658	0.02501981
253	0x3d76d2bc	0.060259566
254	0xbdcfdf1a	-0.10149975
255	0xbb98f960	-0.0046683997

bias f4 [32]
0	0xbdfcb716	-0.12339608
1	0xbde8449c	-0.11341211
2	0xbdef7852	-0.11692871
3	0x3c166400	0.009179115
4	0xbdeb0734	-0.11475983
5	0xbd50df4c	-0.050994202
6	0x3d3ae234	0.04562588
7	0xbdaa77f0	-0.083236575
8	0x3dee341c	0.11631033
9	0x3dab1c88	0.08355051
10	0xbdf602e6	-0.120122716
11	0x3dd29516	0.10282342
12	0x3d580770	0.052741468
13	0xbdac65ae	-0.08417831
14	0xbd752960	-0.05985391
15	0xbd3483e8	-0.044071108
16	0xbd89f3fe	-0.06735991
17	0xbd756888	-0.059914142
18	0x3dc52c44	0.096275836
19	0xbd55b194	-0.052171305
20	0xbc9ff350	-0.0195252
21	0xbdcafdbe	-0.09911679
22	0x3c25f3d0	0.01012893
23	0x3de89412	0.11356367
24	0xbdfe84be	-0.12427662
25	0xbd96eca4	-0.07369354
26	0xbdcf34ac	-0.10117468
27	0xbdc8f5ca	-0.098125055
28	0x3d286634	0.041113093
29	0x3dd370ae	0.10324226
30	0xbb1d5bc0	-0.0024010986
31	0xbdc9e4e2	-0.09858109

weight f4 [64, 128]
0	0xbce1fea8	-0.02758725
1	0xbd1293fb	-0.035785656
2	0x3d30bd7e	0.043149464
3	0x3c84f6b0	0.016230911
4	0xbd51aa44	-0.05118777
5	0x3dabf735	0.083967604
6	0xbd82224e	-0.06354199
7	0x3d5d362e	0.054006748
8	0x3b7a8520	0.0038226321
9	0xbc4b8370	-0.012421474
10	0x3d99cbb5	0.07509557
11	0xbdabcfb3	-0.08389225
12	0x3d716166	0.058930777
13	0x3dae47d9	0.085097976
14	0xbd686fe0	-0.056747317
15	0x3d8ab207	0.06772237
16	0x3c810b70	0.015752524
17	0x3cd80924	0.026371546
18	0x3d880183	0.06640913
19	0xbd2dc7c4	-0.04242684
20	0xbdb1a2b6	-0.08673613
21	0x3cfa66c8	0.030566588
22	0x3d37121a	0.044694997
23	0xbc617ea8	-0.013763107
24	0x3d5ec1ba	0.05438397
25	0xbd54058a	-0.051763095
26	0x3d26d21a	0.040727712
27	0xbda284f5	-0.07935516
28	0x3daaf5dd	0.08347676
29	0xbc88bc6c	-0.016691409
30	0x3dabc615	0.083873905
31	0xbd868454	-0.06568208
32	0x3c3a7228	0.011379756
33	0xbd205274	-0.039141133
34	0xbdac56b2	-0.08414973
35	0xbd600f46	-0.054702066
36	0xbda677f0	-0.08128345
37	0xbd131416	-0.035907827
38	0x3cae27dc	0.02125924
39	0x3d6143ca	0.05499629
40	0xbd9a2128	-0.07525855
41	0x3d987a49	0.07445199
42	0xbd2d678e	-0.042335086
43	0x3da18e27	0.078884415
44	0x3d117d1a	0.035519697
45	0x3d1c223a	0.03811858
46	0xbd3d326b	-0.04619066
47	0xbda3552b	-0.07975229
48	0x3c94e9f0	0.018177956
49	0x3d9e8793	0.077407025
50	0x3ab7a5c0	0.0014011189
51	0x3d5c514a	0.05378846
52	0xbd9a96f6	-0.07548325
53	0xbd445b1b	-0.047938447
54	0x3cff8990	0.031193525
55	0xbd84fede	-0.064939246
56	0xbd3539b5	-0.044244487
57	0xbd9db426	-0.07700376
58	0x3d8500db	0.06494304
59	0x3ba76ab0	0.0051091537
60	0x3db2417f	0.08703899
61	0xbd980aa4	-0.074239045
62	0x3c293b48	0.010329075
63	0x3cf0e59c	0.029406361
64	0xbd205d1e	-0.039151303
65	0x3d6a07ae	0.05713623
66	0x3d9ad2c5	0.07559732
67	0xbd1d5919	-0.03841505
68	0xbcc0f380	-0.02355361
69	0xbca22cfc	-0.01979684
70	0x3bc788a0	0.006089285
71	0xbcb224fc	-0.021746151
72	0x3d163a92	0.03667695
73	0x3d6bcdf6	0.057569467
74	0x3b022b40	0.0019862205
75	0xbd15bec7	-0.036558893
76	0x39f2d000	0.0004631281
77	0xbd900f15	-0.07034127
78	0xbd35ca28	-0.044382244
79	0x3cb3a6bc	0.021930091
80	0x3dae43f7	0.08509057
81	0xbce42ede	-0.02785438
82	0xbda057b0	-0.07829225
83	0xbc635ab8	-0.0138766095
84	0x3c39a898	0.0113317
85	0xbd0fdb3d	-0.03512119
86	0xbd8886a4	-0.06666306
87	0xbd80aa3d	-0.062824704
88	0x3d0e78d0	0.034783185
89	0xbd6906be	-0.056891195
90	0x3d96076d	0.07325635
91	0x3d021daa	0.03176657
92	0x3d68f4fe	0.056874268
93	0xbd56044d	-0.052250195
94	0xbd815415	-0.063148655
95	0xbd772d0a	-0.060345687
96	0x3c577040	0.013149321
97	0x3d9f20fd	0.07769964
98	0x3c2b9f90	0.010475054
99	0xbd9a77e0	-0.075423956
100	0xbdb22cf2	-0.08699979
101	0x3bafa4c0	0.005360216
102	0xbc645558	-0.013936363
103	0x3cb06994	0.021534719
104	0xbd98e27d	-0.07465074
105	0xba5cc500	-0.0008421689
106	0xbd2029a7	-0.039102223
107	0xbd8ebd2b	-0.06969675
108	0x3da5b329	0.08090813
109	0xbd858f9b	-0.06521531
110	0x3d3a9642	0.045553453
111	0x3c0a6de8	0.008449055
112	0xbbf1d920	-0.0073806196
113	0x3da8bdef	0.08239352
114	0x3d3e7892	0.046501704
115	0x3d145c92	0.036221094
116	0x3cd20828	0.025638655
117	0x3d8b395b	0.06798049
118	0xbd853914	-0.065050274
119	0xb9d04800	-0.00039726496
120	0xbda6e431	-0.08148993
121	0xbd10b3c1	-0.035327677
122	0xbd7ca1f1	-0.061677877
123	0x3d863a6d	0.065541126
124	0xbd752724	-0.05985178
125	0xbd4d91fe	-0.050188057
126	0xbd4fcd33	-0.050732803
127	0x3dad4561	0.084604986
128	0xbccab3d8	-0.02474396
129	0xbbcac570	-0.006188087
130	0x3d0ea55e	0.034825675
131	0xbcb6eaac	-0.022328697
132	0xbd944edf	-0.07241606
133	0x3cd3d838	0.025859937
134	0x3d40485e	0.046944015
135	0xbbfb8f30	-0.0076769814
136	0xbd1064ab	-0.035252254
137	0xbd9a5f13	-0.07537665
138	0xbc350570	-0.01104866
139	0xbc99a3f0	-0.01875493
140	0xbd42aad7	-0.047526207
141	0x3ca23270	0.019799441
142	0x3d8f3a11	0.06993497
143	0xba098780	-0.00052463263
144	0x3d20adf6	0.039228402
145	0x3ca48970	0.020085067
146	0xbb25ce60	-0.002530001
147	0xbd416716	-0.04721745
148	0xbbd97bf0	-0.006637089
149	0x3c8ac928	0.016941622
150	0xbcd3e87c	-0.025867693
151	0x3daf3c61	0.08556438
152	0xbcec0ed8	-0.028815672
153	0xbbaece40	-0.0053346455
154	0x3cdcb250	0.026940495
155	0xbb4cf140	-0.0031271726
156	0xbc088b78	-0.008334033
157	0xbd84901d	-0.064728
158	0xbc8f9ed0	-0.017531782
159	0x3d0317f8	0.03200528
160	0xbd9fa77d	-0.07795618
161	0xbd454fbb	-0.04817174
162	0xbc88405c	-0.016632251
163	0xbd899264	-0.06717375
164	0x3ce09314	0.027413882
165	0xbc67f5d8	-0.014157735
166	0x3c653500	0.013989687
167	0xbd4a056d	-0.04932158
168	0xbd59ceb5	-0.053175647
169	0x3cffea74	0.031239726
170	0xbd9519d8	-0.0728032
171	0x3cb2782c	0.021785818
172	0xbd7c1154	-0.061539963
173	0x3db13b99	0.086539455
174	0x3db1ee5b	0.08688041
175	0xbc645a40	-0.013937533
176	0x3cefd384	0.029275663
177	0x3c135d38	0.008994393
178	0x3c770440	0.015076697
179	0xbd560938	-0.052254885
180	0x3d62340e	0.055225424
181	0x3d5455d2	0.051839657
182	0xbd161799	-0.0366436
183	0xbd31465e	-0.043279998
184	0xbd9d1750	-0.07670462
185	0x3cb3fdec	0.021971665
186	0x3d2cf9d6	0.04223045
187	0x3cf8a8ac	0.030353867
188	0xbd74b31e	-0.059741132
189	0xbd2ced04	-0.042218223
190	0x3d1dd0ba	0.038529135
191	0x3d8b2161	0.06793476
192	0x3d75c0b6	0.059998237
193	0xbccb56a4	-0.024821587
194	0x3d12026e	0.03564685
195	0xbd0ada26	-0.03389945
196	0xbcf3a9c6	-0.02974404
197	0x3dac7889	0.08421428
198	0x3db375f1	0.0876273
199	0xbd819f16	-0.06329171
200	0x3c11d390	0.008900538
201	0xbc33bd98	-0.010970496
202	0xbc65bd60	-0.014022201
203	0xbc9e2550	-0.019304901
204	0x3d7a4f56	0.061110817
205	0xbdac02b4	-0.08398953
206	0x39cf0d00	0.00039491802
207	0xbd449280	-0.047991276
208	0xbda0abbd	-0.078452565
209	0x3d4d5286	0.05012753
210	0xbd8f4e94	-0.069974095
211	0x3d149764	0.03627719
212	0x3c5558e0	0.013021678
213	0x3ce57eec	0.028014623
214	0x3d3b622e	0.04574793
215	0xba86e940	-0.0010292903
216	0x3cdca08c	0.026932023
217	0x3d94cdfd	0.07265852
218	0xbd75661b	-0.05991183
219	0x3d98a0c3	0.07452538
220	0xbd4f043a	-0.05054114
221	0xbd353dd7	-0.04424843
222	0x3d05fa0a	0.03270916
223	0xbd8bc845	-0.06825308
224	0xbdaf8a58	-0.08571309
225	0xbd945022	-0.072418466
226	0xbc94923c	-0.018136136
227	0x3d4ae7e2	0.049537547
228	0xbd7c59b8	-0.061609
229	0x3c9800f8	0.01855515
230	0x3d1d27da	0.038368084
231	0x3c2f5958	0.010702454
232	0xbd7f446c	-0.06232111
233	0x3db1e8c7	0.08686977
234	0x3da326e5	0.07966403
235	0xbc649cf8	-0.01395344
236	0xbc3fe218	-0.01171162
237	0xbd1697dc	-0.036765918
238	0xbd0054b6	-0.031330787
239	0x3da5bead	0.08093009
240	0xbd6a0fa7	-0.057143833
241	0x3dabafc3	0.08383133
242	0x3d87589f	0.066087
243	0x3c930040	0.017944455
244	0x3c8f8200	0.017518044
245	0x3dafab97	0.0857765
246	0xbd77ede4	-0.060529605
247	0xbcb81314	-0.022470035
248	0xbd440f1a	-0.047865964
249	0x3d74113a	0.05958674
250	0x3d93f087	0.07223611
251	0x3b58d1e0	0.003308408
252	0xbd428969	-0.047494326
253	0xbd4cbcb0	-0.049984634
254	0xbda88283	-0.08228018
255	0xbc242e78	-0.010020845

bias f4 [64]
0	0xbd9cdc38	-0.07659191
1	0x3daf3859	0.08555669
2	0x3d06920e	0.032854132
3	0xbd766f67	-0.060164835
4	0xbd114e56	-0.035475098
5	0xbb9b8ce0	-0.004747018
6	0xbd8d34f8	-0.068948686
7	0x3c91e764	0.017810531
8	0xbc7244b0	-0.014786884
9	0x3d973325	0.07382802
10	0xbdb3a124	-0.087709695
11	0x3c090c40	0.008364737
12	0xbb180080	-0.0023193657
13	0xbc187880	-0.009306073
14	0x3cbd7748	0.023128167
15	0x3da0f4f7	0.07859223
16	0xbc69fd10	-0.014281526
17	0x3d62d5de	0.05537974
18	0x3bad0a30	0.0052807555
19	0xbda42087	-0.080140166
20	0x3dae2927	0.08503943
21	0xbd31d3d2	-0.0434149
22	0xbda53126	-0.08066015
23	0xbd221db6	-0.039579116
24	0x3c5b7908	0.013395555
25	0x3aedcb40	0.0018142238
26	0xbd964422	-0.07337214
27	0x3d34b872	0.044121213
28	0xbd9f1f51	-0.07769645
29	0xbd5bcd0f	-0.053662356
30	0xbcea79f6	-0.028622609
31	0xbc8e4290	-0.017365724
32	0xbd111841	-0.03542352
33	0x3c9ae23c	0.018906705
34	0x3c156390	0.009117976
35	0xbd363e6b	-0.04449312
36	0x3c9ab090	0.01888302
37	0x3d777ac6	0.06041982
38	0x3ae5a280	0.0017519742
39	0x3d5df8e2	0.05419243
40	0xbd426043	-0.047455084
41	0x3d3702fa	0.044680573
42	0xbd6e5efe	-0.05819606
43	0xbcc5a4ac	-0.024126373
44	0x3d660942	0.056161173
45	0x3dae6833	0.08515968
46	0x3d0d4da8	0.034497887
47	0xbd4e4261	-0.050356273
48	0x3cd9d508	0.026590839
49	0xbd7cdcee	-0.061734132
50	0x3d7a21f6	0.061067544
51	0xbd03f837	-0.032219138
52	0xbd536a8c	-0.051615283
53	0xbd902cc6	-0.0703979
54	0xbd9e20fa	-0.077211335
55	0x3c0eb000	0.008708954
56	0xbce12e7c	-0.027487986
57	0x3cc8c118	0.024506137
58	0xbd0410be	-0.03224253
59	0x3d73f8de	0.05956351
60	0xbb670140	-0.0035248548
61	0xbd5a7ee6	-0.053343676
62	0xbd026de7	-0.031843092
63	0x3d659b72	0.056056447

weight f4 [32, 64]
0	0x3da4155e	0.08011888
1	0x3c97da18	0.018536612
2	0x3d8cc04c	0.06872615
3	0x3dd8a63e	0.10578583
4	0x3d6cd188	0.057817012
5	0xbdbcd76a	-0.092207745
6	0x3daea03a	0.085266545
7	0x3dbbaf34	0.09164277
8	0x3d358108	0.044312507
9	0x3ddf8250	0.10913527
10	0x3cda8dc0	0.02667892
11	0x3d7bf9a0	0.061517358
12	0x3cd8f410	0.026483566
13	0x3c65e370	0.014031276
14	0xbd4f84f4	-0.050663903
15	0x3cd23998	0.025662228
16	0xbdabe792	-0.08393778
17	0x3c7e87d0	0.01553531
18	0x3dae4d9e	0.08510898
19	0xbdb959a6	-0.09050302
20	0xbde1df5c	-0.110289305
21	0xbdea41d6	-0.114383385
22	0x3d22c7b4	0.039741233
23	0xbc0a8780	-0.008455157
24	0x3c0de330	0.008660123
25	0x3c68d0e0	0.014209956
26	0xbcc36908	-0.023853794
27	0xbde172ee	-0.11008249
28	0x3d762cf8	0.06010148
29	0x3dd5f770	0.104475856
30	0x3df31826	0.1186984
31	0xbd3788dc	-0.044808254
32	0x3d5ea6e4	0.054358378
33	0xbce1d668	-0.027568057
34	0xbd9c09b8	-0.07619041
35	0x3d541a30	0.051782787
36	0x3d07f828	0.033195645
37	0xbdf85c8a	-0.121270254
38	0x3d9e176c	0.07719311
39	0xbc22db70	-0.009940013
40	0xbdc63398	-0.096778095
41	0x3dbf49fe	0.09340285
42	0xbd85798a	-0.06517322
43	0x3d6184a0	0.05505812
44	0x3cd0cf78	0.025489554
45	0x3d6e0384	0.05810882
46	0x3dda92bc	0.106725186
47	0x3ddf3a98	0.10899848
48	0x3c275a70	0.010214433
49	0xbdbf3a42	-0.09337284
50	0x3db478fa	0.08812137
51	0x3ce83cd8	0.028349325
52	0x3d28bd40	0.041196108
53	0x3d4c8850	0.049934685
54	0xbd3ff7b0	-0.046867073
55	0xbcad7ec8	-0.021178618
56	0x3d202aa0	0.03910315
57	0x3dfce7f8	0.12348932
58	0x3daf9714	0.08573738
59	0x3da5de2a	0.08099015
60	0xbde70eda	-0.112821296
61	0xbdbf11b8	-0.093295515
62	0x3dc31b60	0.09526706
63	0x3db3e856	0.08784549
64	0x3d3a3b54	0.045466736
65	0xbaf60680	-0.0018770248
66	0x3d5d5938	0.054040164
67	0x3b321340	0.0027172118
68	0xbbea2360	-0.0071453303
69	0xbd012208	-0.031526595
70	0xbde62852	-0.11238159
71	0x3d23c72c	0.039984867
72	0xbd61d38c	-0.055133387
73	0x3d1a51e8	0.037675768
74	0x3dda25e4	0.10651758
75	0xbd0f0918	-0.03492078
76	0xbdf5faac	-0.120107025
77	0xbafaf100	-0.001914531
78	0xbda91d74	-0.08257571
79	0x3da8adc6	0.0823627
80	0xbda3807c	-0.07983491
81	0x3d9457ac	0.072432846
82	0x3d11ad44	0.03556563
83	0x3d915f18	0.07098216
84	0xbc85df90	-0.016341954
85	0xbd06e538	-0.032933444
86	0xbdadeeae	-0.0849279
87	0x3c792ba0	0.015208155
88	0xbcc7b5b8	-0.024378642
89	0x3d3f9524	0.04677309
90	0x3dabcaa6	0.083882615
91	0xbd21c464	-0.039493933
92	0x3dc0c396	0.09412305
93	0x3d1055d8	0.035238117
94	0x3dbbd466	0.09171371
95	0x3dba2370	0.090887904
96	0xbdcbb1fa	-0.09946056
97	0xbd9445e6	-0.072398946
98	0x3d5fa6f0	0.054602563
99	0xbd8dacf0	-0.06917751
100	0xbc9cfd70	-0.019163817
101	0xbce54080	-0.027984858
102	0xbd383d58	-0.044980377
103	0x3de71720	0.112837076
104	0x3ddf8a80	0.10915089
105	0xbd867d74	-0.06566897
106	0xbd488394	-0.048953608
107	0xbd1fdb44	-0.039027467
108	0xbdb5d99e	-0.08879398
109	0xbd169c68	-0.036770254
110	0xbde96094	-0.11395374
111	0x3baced40	0.005277306
112	0xbdee4056	-0.11633365
113	0x3d9880f2	0.07446469
114	0x3dc28a76	0.094990656
115	0x3dddfeea	0.108396366
116	0x3c9d48d0	0.019199759
117	0xbd77f074	-0.06053205
118	0x3d37f578	0.04491183
119	0xbdbafef8	-0.09130663
120	0x3db543e6	0.08850841
121	0xbc0ab060	-0.008464903
122	0xbd8aba30	-0.06773794
123	0x3d59b4f8	0.0531511
124	0xbcc807b8	-0.024417743
125	0x3d20e03c	0.039276347
126	0xbd3ac390	-0.04559666
127	0xbdb5c73c	-0.088758916
128	0xbda2bd70	-0.079462886
129	0xbd7a072c	-0.061041996
130	0xbc6d9510	-0.014500871
131	0xbcccbd00	-0.024992466
132	0x3dd52cba	0.104089215
133	0xbc2a4720	-0.010392934
134	0xbdf4fd96	-0.1196243
135	0xbd82eb6a	-0.06392558
136	0xbdebaa64	-0.11507109
137	0x3dfb6a0a	0.12276085
138	0xbcee9040	-0.029121518
139	0x3d3869d4	0.0450228
140	0x3d743180	0.05961752
141	0xbc9f97e8	-0.019481614
142	0x3db264bc	0.0871062
143	0x3d563790	0.052299082
144	0xbdd4d180	-0.103915215
145	0x3df7a648	0.120922625
146	0x3d000914	0.031258658
147	0xbbd938c0	-0.0066290796
148	0xbdfd1f6e	-0.1235951
149	0x3da163a2	0.078803316
150	0xbdac6cf4	-0.08419219
151	0x3d5b44a8	0.053532273
152	0xbd73800c	-0.059448287
153	0xbd68dc98	-0.056851
154	0x3d936776	0.07197468
155	0xbd8d751e	-0.06907104
156	0xbde7a456	-0.113106415
157	0x3dbd2872	0.0923623
158	0xbdd30a34	-0.103046805
159	0xbdb34704	-0.087537795
160	0xbde242c8	-0.11047894
161	0x3d17a45c	0.03702198
162	0x3dce0af6	0.100606844
163	0xbdbedd3c	-0.09319541
164	0x3ca737d8	0.02041237
165	0x3d621a94	0.055201128
166	0xbdea84f4	-0.1145114
167	0x3d788358	0.060672134
168	0xbc040e00	-0.0080599785
169	0x3d1dd44c	0.03853254
170	0xbdfc72c2	-0.12326576
171	0x3d894cd6	0.067041084
172	0xbd883b16	-0.06651895
173	0x3df7c942	0.12098934
174	0xbdf7a7d2	-0.12092556
175	0x3d65c814	0.056099012
176	0xbcfab5e0	-0.030604303
177	0xbded8786	-0.11598115
178	0xbc5509f0	-0.013002858
179	0x3d7c6af0	0.06162542
180	0x3d1bab4c	0.03800516
181	0x3deb0bdc	0.11476871
182	0xbce0b408	-0.027429596
183	0x3c5b8cb0	0.013400242
184	0xbdeeb1e0	-0.11655021
185	0xbd05c8bc	-0.03266214
186	0xbd98ef6a	-0.074675396
187	0x3c16a9f0	0.00919579
188	0x3d8318ce	0.064012155
189	0x3d63e67c	0.05563973
190	0x3ba6fee0	0.0050963014
191	0x3db6a4f4	0.08918181
192	0xbd61b50c	-0.0551043
193	0x3c40dbf0	0.011771187
194	0xbd628b20	-0.05530846
195	0xbd336fbc	-0.04380773
196	0xbda21d94	-0.07915798
197	0xbdbd6840	-0.092484
198	0xbdc06800	-0.093948364
199	0x3df667da	0.12031527
200	0xbd41d3f0	-0.04732126
201	0xbce0ca20	-0.02744013
202	0x3dc01c44	0.09380391
203	0xbc828190	-0.01593092
204	0x3d57d014	0.052688673
205	0x3c42dd00	0.011893511
206	0xbd632548	-0.055455476
207	0x3dea50e4	0.1144121
208	0xbd8b6c96	-0.068078205
209	0x3d137138	0.035996646
210	0xbdc33538	-0.09531635
211	0xbdaadeac	-0.083432525
212	0xbd8ede10	-0.06975949
213	0xbc3c4650	-0.011491373
214	0xbdc79748	-0.097456515
215	0xbdb6c92e	-0.08925091
216	0xbdd80650	-0.10548079
217	0xbd2d3d00	-0.042294502
218	0xbd958f3c	-0.073027104
219	0x3d85448a	0.065072134
220	0x3c332e40	0.01093632
221	0xbd7e7388	-0.062121898
222	0xbd0fea38	-0.035135478
223	0xbcabbb98	-0.020963475
224	0x3c77a310	0.015114561
225	0x3d2c64ac	0.042088196
226	0x3d8638a4	0.06553772
227	0x3d8cf44a	0.06882532
228	0xbcbe6298	-0.023240373
229	0x3d766cf4	0.0601625
230	0xbcb6bea8	-0.022307709
231	0xbdc316ec	-0.095258564
232	0xbdf6a8f2	-0.120439425
233	0x3dda9142	0.10672237
234	0x3dbd41da	0.09241076
235	0xbdbac846	-0.091202304
236	0xbd8a287c	-0.06746003
237	0xbdb89308	-0.09012419
238	0xbd94daea	-0.07268317
239	0xbda4e14e	-0.08050786
240	0x3de2d52a	0.11075814
241	0xbd1fc65c	-0.03900753
242	0x3c5665f0	0.013085827
243	0x3de5b160	0.11215472
244	0xbdc1538c	-0.094397634
245	0xbd9cfc52	-0.07665314
246	0x3dab57a4	0.083663255
247	0xbd8b7fd6	-0.06811492
248	0x3de7f8b8	0.11326736
249	0xbd859d78	-0.065241754
250	0xbd5290a8	-0.051407486
251	0x3ccfb170	0.025353163
252	0x3d1753f4	0.0369453
253	0xbd7b81b0	-0.061402977
254	0xbddcda2c	-0.107838005
255	0xbdc40894	-0.09571949

bias f4 [32]
0	0xbde65d3c	-0.11248252
1	0xbdb409e0	-0.08790946
2	0xbd316044	-0.043304697
3	0xbd1a5ab0	-0.037684143
4	0x3cac4668	0.021029666
5	0xbdaacd2a	-0.08339913
6	0xbd129304	-0.035784736
7	0x3dcee5f0	0.10102451
8	0xbdb28e0a	-0.08718498
9	0xbd7bd2f0	-0.061480463
10	0x3c7dc040	0.0154877305
11	0x3deb6eee	0.114957675
12	0x3dfa6d96	0.12227933
13	0xbd1be1e8	-0.038057238
14	0x3d8a4c2e	0.06752811
15	0xbdea8390	-0.11450875
16	0x3d806b88	0.0627051
17	0x3d94e6d4	0.072705895
18	0xbdb36560	-0.0875957
19	0x3d96eda0	0.07369542
20	0xbcd3bf98	-0.025848195
21	0xbddcb30e	-0.107763395
22	0xbd9b1ac4	-0.075734645
23	0x3d943914	0.07237449
24	0x3d09b07c	0.033615574
25	0x3de94738	0.11390537
26	0x3d23edac	0.040021583
27	0xbda4a908	-0.08040053
28	0x3d3a1150	0.045426667
29	0xbd0e7b0c	-0.034785315
30	0xbd8d5374	-0.06900683
31	0x3c8ad5a0	0.016947567

weight f4 [64, 160]
0	0x3cc0ed30	0.0235506
1	0xbd9be81e	-0.07612632
2	0xbd0cdf28	-0.034392506
3	0x3ba8a510	0.00514663
4	0x3d2b43fe	0.04181289
5	0x3d668d02	0.05628682
6	0x3d29d67e	0.04146432
7	0x3d253962	0.040337928
8	0x3d961947	0.0732904
9	0x3d932a79	0.071858354
10	0xbd6dddf7	-0.05807301
11	0xbd9269f9	-0.07149119
12	0xbd496362	-0.049167044
13	0xbd66adec	-0.05631821
14	0xbca54cee	-0.020178284
15	0x3da1bf5f	0.07897829
16	0x3d63ef3a	0.055648066
17	0xbcd3dfb8	-0.025863513
18	0xbc8b07c6	-0.01697148
19	0xbd90d5f2	-0.07072057
20	0xbd7f6000	-0.062347412
21	0x3c80e3f0	0.01573369
22	0xbb61b280	-0.003443867
23	0xbc859dfc	-0.016310684
24	0x3c958588	0.01825215
25	0x3ca51ff8	0.020156845
26	0x3bd00bb0	0.0063490495
27	0x3d2d27b6	0.0422742
28	0x3b469360	0.0030300245
29	0x3b9d2b30	0.004796408
30	0xbb671080	-0.0035257638
31	0xbd453b3c	-0.048152193
32	0x3cac3c80	0.021024942
33	0x3d5f0066	0.05444374
34	0xba5dc980	-0.0008460507
35	0xbd5e29d7	-0.05423912
36	0x3d1fee9a	0.039045908
37	0xbd0a47a7	-0.03375974
38	0x3d83e475	0.06440059
39	0xbd9ea0fc	-0.07745549
40	0x3ac28180	0.0014839619
41	0x3ceaebd8	0.028676912
42	0xbd3174c7	-0.04332426
43	0xbd97ab8d	-0.074057676
44	0x3d99e08d	0.07513533
45	0xbd4a0675	-0.049322564
46	0xbc76c5a0	-0.015061766
47	0x3d0817c6	0.033225797
48	0x3d93e337	0.07221072
49	0x3bfed980	0.007777393
50	0xbd37381c	-0.044731244
51	0xbd2bce87	-0.041945007
52	0x3c418898	0.011812352
53	0xbd5284ac	-0.051396057
54	0x3d56e4ea	0.052464403
55	0xbd6d189c	-0.057884797
56	0xbb808150	-0.0039216653
57	0xbc370bd8	-0.011172257
58	0x3c298058	0.010345541
59	0xbd72f20e	-0.059312873
60	0x3d80a62f	0.06281697
61	0x3cceb34c	0.02523198
62	0x3d1b86e2	0.03797043
63	0x3d888581	0.06666089
64	0x3ca22c34	0.019796468
65	0xbd227146	-0.039658807
66	0x3ccdc048	0.0251161
67	0x3b5b4e20	0.0033463314
68	0x3c89de84	0.016829737
69	0x3cdf3c8c	0.02725055
70	0xbd8cf509	-0.06882674
71	0x3d82eccd	0.063928224
72	0xbcd43464	-0.025903888
73	0xbc4fce68	-0.012683488
74	0xbd3d1846	-0.046165727
75	0x3d79586e	0.06087535
76	0xbd9ae260	-0.07562709
77	0x3cba1038	0.022712812
78	0x3d0b7bfc	0.034053788
79	0x3d9b1e69	0.0757416
80	0x3cd0b444	0.025476582
81	0x3d833c03	0.06407931
82	0x3b1a33e0	0.0023529455
83	0xbc83a2f8	-0.01606892
84	0x3d570226	0.052492283
85	0xbd3a763f	-0.045522925
86	0xbd9c3945	-0.07628111
87	0xbce5cf12	-0.02805284
88	0xbd29b1d4	-0.041429356
89	0x3d712e66	0.05888214
90	0xbcf7864a	-0.030215401
91	0xbb6f9c80	-0.0036561787
92	0xbd3d7d43	-0.046262037
93	0xbce862d2	-0.028367434
94	0xbc216b60	-0.00985226
95	0xbc137428	-0.008999862
96	0x3c96d530	0.018412203
97	0x3d824f97	0.06362837
98	0x3b5254a0	0.0032093897
99	0x3cc860d0	0.024460226
100	0x3c99fa0c	0.01879599
101	0x3cad0318	0.02111964
102	0x3c8f1574	0.017466284
103	0xbd703e26	-0.05865302
104	0xbd5a54be	-0.053303473
105	0xbbd24340	-0.006416708
106	0xbd86df45	-0.06585554
107	0x3c1a50f0	0.009418711
108	0xbba7fcb0	-0.0051265582
109	0x3c243290	0.010021821
110	0xbcf2a57e	-0.029619928
111	0xbd811318	-0.0630247
112	0x3d8304cb	0.063973986
113	0xbd039dcb	-0.032132905
114	0xbd143104	-0.036179557
115	0x3d9de063	0.07708814
116	0xbd8c2253	-0.06842484
117	0x3d8accbf	0.067773335
118	0x3c692a68	0.014231302
119	0x3d75f3b2	0.06004686
120	0xbcf47f66	-0.029845905
121	0xbce801a4	-0.028321095
122	0x3d8d6dcb	0.06905707
123	0x3c392a50	0.011301592
124	0xbd86cdaa	-0.06582196
125	0x3d173426	0.036914967
126	0x3d740262	0.059572585
127	0xbd253e0b	-0.040342372
128	0x3d72afa2	0.059249528
129	0x3b6e7180	0.003638357
130	0x3c8c2540	0.017107606
131	0xbcee5c1e	-0.02909666
132	0x3d839b8d	0.06426153
133	0x3d43ae4a	0.047773637
134	0xbd947672	-0.07249154
135	0xbd8ccb49	-0.06874711
136	0x3d2913a8	0.04127851
137	0xbd963e92	-0.07336153
138	0x3d87b121	0.066255815
139	0x3d0d3a4c	0.034479424
140	0xbda0fe6a	-0.07861026
141	0x3cff13d8	0.031137392
142	0x3cc222ac	0.023698173
143	0x3c912afc	0.017720692
144	0x3bafc1c0	0.005363673
145	0xbd881cbe	-0.06646107
146	0x3d62f81a	0.05541239
147	0xbd1da308	-0.038485557
148	0x3d62444e	0.05524092
149	0x3d6b3cc6	0.057431005
150	0x3c2a5220	0.010395557
151	0x3cae713c	0.021294229
152	0xbd9b21cb	-0.07574805
153	0x3c50b098	0.012737416
154	0x3d8f4e9d	0.06997416
155	0x3d94a9f9	0.07258982
156	0xbd2413c6	-0.04005792
157	0xbd9fe9ed	-0.0780829
158	0xbd51ca5b	-0.05121837
159	0x3d9a6373	0.075385
160	0x3cfb799c	0.030697636
161	0x3cff4404	0.031160362
162	0xbcc14f0e	-0.023597267
163	0x3d81db59	0.06340665
164	0x3c04fcc0	0.008116901
165	0x3b9ad090	0.0047245696
166	0x3b5dc1e0	0.0033837482
167	0x3d7edb32	0.06222076
168	0xbcb115a0	-0.021616757
169	0x3c7e1e68	0.015510179
170	0x3d6354b6	0.05550071
171	0x3d7a6e36	0.06114026
172	0xbd32562e	-0.04353922
173	0xbd4abcd0	-0.049496472
174	0xbc921e72	-0.017836783
175	0x3d0afd34	0.03393288
176	0x3d61f9ba	0.0551698
177	0x3d67d97a	0.056603886
178	0x3cce3964	0.02517385
179	0x3d9ee2af	0.0775808
180	0x3c709560	0.014684051
181	0xbd844a8d	-0.06459532
182	0x3d79e1b6	0.06100627
183	0x3bed28f0	0.007237546
184	0xbd685669	-0.056723032
185	0x3d426a42	0.047464617
186	0x3d164176	0.036683522
187	0xbbb296a0	-0.005450085
188	0xbc11f258	-0.008907877
189	0xbb1cfea0	-0.002395548
190	0x3c9daee0	0.019248426
191	0xbd4c3b6e	-0.049861364
192	0x3d5469de	0.051858775
193	0xbb86e8b0	-0.004117094
194	0x3cd9659c	0.026537709
195	0x3ce3937c	0.027780287
196	0x3cb7a234	0.022416212
197	0x3c83f558	0.0161082
198	0xbcca72c0	-0.02471292
199	0xbbc71970	-0.0060760304
200	0x3d0a785a	0.033806182
201	0xbd8592d2	-0.065221444
202	0xbd51897d	-0.05115651
203	0xbc8dab28	-0.017293528
204	0xbc5df090	-0.013546124
205	0xbcef275a	-0.029193569
206	0x3d352c1a	0.04423151
207	0xb9164200	-0.00014329702
208	0xbd4f1d14	-0.05056484
209	0xbd6b3ab3	-0.057429027
210	0x3c167618	0.009183429
211	0x3d9fe3a9	0.078070946
212	0x3c9c49a0	0.019078076
213	0x3d125928	0.035729557
214	0xbd00aa39	-0.031412337
215	0xbd332dbf	-0.0437448
216	0xbc8997f6	-0.016796093
217	0xbcb5f352	-0.02221075
218	0x3d8c0023	0.068359636
219	0x3c603c30	0.013686225
220	0x3d22c56e	0.039739065
221	0x3d4a42aa	0.049379982
222	0xbd9eefcb	-0.07760581
223	0x3cf8fc90	0.030393869
224	0xbd965133	-0.07339706
225	0xbcbb8f32	-0.02289543
226	0xbd9edb99	-0.07756729
227	0x3ca83220	0.020531714
228	0x3d73591a	0.059411146
229	0xbca12bae	-0.019674148
230	0xbcd4c66a	-0.025973517
231	0xbd62c65c	-0.05536495
232	0xbd7fe7c5	-0.062476892
233	0xbb0ee7e0	-0.0021805689
234	0xbd08bc1a	-0.033382513
235	0x3c1dc360	0.009629101
236	0x3d85ea03	0.06538775
237	0x3d390b76	0.045176946
238	0x3c6da888	0.014505513
239	0xbbebec70	-0.0071998164
240	0xbd9fa65a	-0.07795401
241	0xbd1b4894	-0.037911013
242	0x3c3fe0c0	0.011711299
243	0xbc168870	-0.009187803
244	0x3d93a8c3	0.07209923
245	0xbd5e20c7	-0.054230478
246	0x3d5d90ca	0.05409316
247	0xbd11d6a6	-0.035605095
248	0x3cdf151c	0.027231745
249	0x3d591c62	0.053005584
250	0x3bddfa80	0.0067742467
251	0xbc629028	-0.013828315
252	0xbca9b558	-0.020716354
253	0x3d4c9752	0.049948998
254	0xb9073a00	-0.0001289621
255	0xbd75e792	-0.060035296

bias f4 [64]
0	0xbd48ea38	-0.049051493
1	0x3d9bb347	0.07602554
2	0xbd11d12d	-0.035599876
3	0xbd4e3998	-0.050347894
4	0xbcb95bbc	-0.02262675
5	0xbd716a4f	-0.058939274
6	0xbd715ad0	-0.058924496
7	0x3b963e90	0.0045850947
8	0xbbc47f40	-0.0059966147
9	0x3d33a622	0.04385961
10	0x3d8c2c13	0.06844344
11	0x3d7d6c76	0.061871015
12	0xbd0f8add	-0.03504454
13	0x3d453d26	0.04815402
14	0xbd57ec17	-0.052715387
15	0xbd21303a	-0.039352633
16	0x3d82c425	0.06385068
17	0xbd1d4e04	-0.03840448
18	0x3d0dbc24	0.034603253
19	0x3cc0fb74	0.023557402
20	0xbd1a8294	-0.037722185
21	0xbd14ad37	-0.036298003
22	0x3cc530d8	0.024071142
23	0x3d77fcee	0.060543947
24	0x3d8d099f	0.06886601
25	0x3cef7a8c	0.02923324
26	0x3d307a18	0.043085188
27	0xbcdd3394	-0.027002133
28	0xbd5ffd79	-0.05468509
29	0xbbe18220	-0.006881967
30	0x3d1656dc	0.03670393
31	0x3d37edc6	0.044904493
32	0x3d926b51	0.07149375
33	0xbd67c492	-0.05658395
34	0x3c27da80	0.010244966
35	0x3c4a2ae0	0.012339324
36	0x3d1fa6de	0.038977496
37	0x3d320f66	0.043471716
38	0x3d7e61a2	0.06210483
39	0x3d82113d	0.06350944
40	0xbd966ab4	-0.07344571
41	0x3d3da2c2	0.046297796
42	0xbc26aa00	-0.010172367
43	0xbd559018	-0.05213937
44	0x39bb0400	0.000356704
45	0xbd937095	-0.07199208
46	0xbd0858db	-0.033287864
47	0x3d529a9e	0.051416986
48	0xbd89cb0a	-0.0672818
49	0xbd54c84e	-0.051948838
50	0x3d264502	0.040593155
51	0x3c3e2780	0.011606097
52	0xbccec16e	-0.025238719
53	0xbd6336b2	-0.055472083
54	0x3d2be4d0	0.04196626
55	0x3c4bf718	0.012449048
56	0x3d6bc86e	0.05756419
57	0x3d807e6f	0.06274115
58	0xbc1b03b0	-0.009461328
59	0xbcdeb3ee	-0.027185407
60	0x3c8c4ed0	0.017127424
61	0x3c019410	0.007908836
62	0xbd5861ec	-0.05282776
63	0xbd5ba5b2	-0.053624816
