test/models/checkpoint_single.pt (torch, 85434 bytes, 4 tensors)

weight f4 [98, 32]
0	0x3d30540c	0.043048903
1	0xba80b430	-0.0009819325
2	0xbca57aa7	-0.020200087
3	0x3bec5995	0.0072128274
4	0x3d0b70ed	0.03404324
5	0x3b21b2da	0.0024673254
6	0xbb8e210d	-0.004337436
7	0x3c4ae682	0.012384059
8	0xbb582669	-0.0032981879
9	0xbc3a1281	-0.011356951
10	0xbb93e998	-0.0045139305
11	0x3e300449	0.17189135
12	0xbdaa0866	-0.08302383
13	0xbd907e07	-0.07055288
14	0xbb0fb5f6	-0.0021928526
15	0xbc6e5db5	-0.014548709
16	0x3b8abaae	0.0042336797
17	0xbac2cd44	-0.0014862199
18	0x3bf5c282	0.007499994
19	0x3aad3e3d	0.0013217401
20	0x3d544321	0.05182183
21	0xbd0e8a5b	-0.034799915
22	0x3b9f7942	0.00486675
23	0x3c8a071f	0.016849099
24	0xbbc60ef0	-0.006044261
25	0xbef706c9	-0.48247364
26	0xbe61d970	-0.22055602
27	0x3d8ed013	0.06973281
28	0x3c2845b5	0.010270526
29	0xbb84a1d9	-0.004047614
30	0x3e16e313	0.1473506
31	0xbc43c304	-0.011948351
32	0x3da618cd	0.08110199
33	0x3bbc6f98	0.0057506077
34	0xbcdaa401	-0.026689531
35	0xbb70e229	-0.0036755896
36	0xbbcad974	-0.006190473
37	0x3aefee60	0.0018305294
38	0xbc00f4cb	-0.007870863
39	0xba9e3031	-0.0012068806
40	0x3b5f369b	0.0034059647
41	0x3ba71314	0.00509871
42	0x38cec251	9.85904e-05
43	0xbe172f4e	-0.14764139
44	0xbe93bef7	-0.28856632
45	0x3c8fe073	0.01756308
46	0x3ad76006	0.0016431815
47	0x3b55a824	0.003260144
48	0xbbe2c453	-0.0069203763
49	0xbb260887	-0.0025334673
50	0xb859afba	-5.190049e-05
51	0x3b80e69c	0.003933741
52	0x3e02e387	0.12782107
53	0xbd1040a5	-0.0352179
54	0x3a1d9840	0.0006011762
55	0xbe4194d2	-0.18904427
56	0x3baf28aa	0.0053454237
57	0x3d8e5882	0.06950475
58	0x3c67cb51	0.0141475955
59	0xbdf3ba96	-0.11900823
60	0xb91af63c	-0.00014778314
61	0xbb4f4d37	-0.0031631717
62	0xbcdd9355	-0.027047792
63	0xbb5f4f83	-0.0034074492
64	0xbc80db18	-0.015729472
65	0x3b97e1ea	0.0046350854
66	0x3d14c490	0.03632027
67	0xbc0d3942	-0.008619608
68	0x3b9df62d	0.004820606
69	0x3c0f64ee	0.008752091
70	0xbb96e067	-0.0046043876
71	0xbc34b79b	-0.011030103
72	0xbbb05d3e	-0.005382209
73	0x3b53459f	0.0032237542
74	0x3c93b41e	0.018030223
75	0x3e382b79	0.17985334
76	0x3eb9392e	0.36176437
77	0x3bd0a57d	0.006367384
78	0x3b4b63f8	0.0031034928
79	0x3b276507	0.0025542395
80	0xbc60c3fd	-0.013718602
81	0xbb80cab1	-0.0039304127
82	0xbb2c33df	-0.0026276035
83	0xbbb1ea1e	-0.0054295203
84	0xbd28b6ef	-0.041190084
85	0xbd8392e1	-0.06424499
86	0x3a93dddc	0.0011281329
87	0xbe06e438	-0.13172996
88	0xba9ed045	-0.0012116513
89	0x3e222286	0.15833482
90	0x3db0e1e8	0.08636838
91	0xbef9b75b	-0.48772702
92	0xbb58e9ec	-0.0033098413
93	0xbb49e01e	-0.003080375
94	0xbc068fa4	-0.0082129575
95	0xba8c5392	-0.0010706058
96	0xbc841ab8	-0.016126022
97	0xbb97e36b	-0.0046352646
98	0x3e253509	0.16133513
99	0xbc39253a	-0.011300379
100	0x3c6d84c4	0.014496986
101	0x39aa2da8	0.00032458943
102	0x3bc2d811	0.0059461673
103	0xbc0d6d6a	-0.008632043
104	0x3aea8538	0.0017892485
105	0x3c1ee677	0.009698502
106	0x3b3b4fc2	0.0028581475
107	0xbe20a896	-0.1568931
108	0xbe3de465	-0.18544157
109	0xbd6047ba	-0.054755904
110	0x3b4d6491	0.003134046
111	0x3c600c5e	0.013674824
112	0xbaf0cbe1	-0.0018371308
113	0xbb5e335c	-0.0033905124
114	0xbc0af2c6	-0.008480733
115	0xbb966108	-0.0045892037
116	0xbe53bca1	-0.20677425
117	0x3d45f1b7	0.04832622
118	0x3a3e1816	0.0007251514
119	0x3a08b76b	0.00052153197
120	0x3bb7e7cd	0.0056123496
121	0x3c5eb317	0.013592503
122	0xbc82dbb5	-0.015973905
123	0xbddd7bcf	-0.1081463
124	0xbbb4812f	-0.005508564
125	0x3ba426f9	0.0050095287
126	0xbdfb8307	-0.12280851
127	0x3c5d74af	0.013516589
128	0x3cacfeff	0.021117685
129	0xbb96ff51	-0.004608073
130	0x3d612ebe	0.054976217
131	0xbbc4e638	-0.0060088895
132	0xbb5ca350	-0.0033666678
133	0x38a5bd63	7.903089e-05
134	0x3bfe27c4	0.0077562053
135	0xbb71a8c7	-0.003687428
136	0xbb391382	-0.0028240387
137	0x3991c52c	0.0002780346
138	0xbb9e1704	-0.004824521
139	0xbe27b7e1	-0.16378738
140	0xbd1c3653	-0.038137745
141	0xbdc68020	-0.09692407
142	0xbb5c2599	-0.0033591746
143	0x3c042487	0.008065349
144	0x3b3a3bbd	0.0028416954
145	0xb9aef760	-0.00033372175
146	0xbb2e4677	-0.0026592293
147	0xbbcf6ccf	-0.0063301097
148	0x3d31975c	0.04335724
149	0x3cab67da	0.020923544
150	0x3b508981	0.003182024
151	0x3dcf8361	0.101324804
152	0x38694e89	5.562467e-05
153	0xbcad1a90	-0.02113083
154	0x3d31a17d	0.043366898
155	0x3d518046	0.05114772
156	0xb90bd525	-0.00013335476
157	0x3ac7d611	0.0015246292
158	0xbd1523e9	-0.0364112
159	0x3be7e269	0.0070765507
160	0x3d1aa74a	0.037757196
161	0xbba89a54	-0.0051453505
162	0x3d14be51	0.036314312
163	0xba21e8bb	-0.0006176342
164	0xbaed8cda	-0.0018123642
165	0x3a56f3b4	0.0008199767
166	0x3b304e5b	0.0026902172
167	0x3995ddb1	0.00028584668
168	0x3aeb9d47	0.001797595
169	0xbbd8a97e	-0.006612002
170	0xbb910a1e	-0.004426255
171	0x3d391c3b	0.04519294
172	0xbeaed991	-0.34150365
173	0xbd831c23	-0.06401851
174	0x3ba33ce1	0.0049816226
175	0x3b624e47	0.003453152
176	0x3c4307ec	0.011903744
177	0xbbb39bf5	-0.005481238
178	0xbbf6e182	-0.007534207
179	0x3ae565a7	0.0017501608
180	0xbd3b0371	-0.04565758
181	0x3d4ef466	0.050526045
182	0x3bd6a9e0	0.0065510124
183	0x3de4c489	0.111702986
184	0x3acdcc51	0.001570115
185	0x3e64487d	0.22293277
186	0x3de1dd86	0.1102858
187	0x3e235597	0.15950619
188	0x3ad80963	0.001648229
189	0x3b911f62	0.00442879
190	0xbc4d85ff	-0.012544154
191	0x3b3138cc	0.002704191
192	0x3e0640cf	0.1311066
193	0x3ba0f16b	0.0049115918
194	0xbda9b277	-0.082859926
195	0x3ac9ccdf	0.0015396139
196	0x3b0981b9	0.0020981862
197	0x3ae63437	0.0017563169
198	0xbc03d102	-0.008045437
199	0x3927472b	0.00015952873
200	0xbb104abb	-0.00220172
201	0x3b3d108c	0.0028848974
202	0x3be7585b	0.0070600933
203	0xbe0352ec	-0.12824601
204	0x3e0f3dc3	0.13988404
205	0x3e4a5f21	0.19762851
206	0xbbe4b108	-0.0069791116
207	0xbb837223	-0.004011409
208	0xbb87daf8	-0.004145976
209	0x39c5d19a	0.00037730933
210	0x3bda00c1	0.006652922
211	0x39ec248b	0.00045040654
212	0xbdff438c	-0.124640554
213	0xbc299971	-0.010351525
214	0xbbaaebdd	-0.0052161054
215	0xbe3b2bf0	-0.1827848
216	0xba14c2d6	-0.0005674785
217	0x3ed00dab	0.40635428
218	0xbd2033f1	-0.039112035
219	0x3e8c0d1c	0.27353752
220	0xbbedb128	-0.0072537847
221	0xbbbfa772	-0.0058488185
222	0x3df23e42	0.11828281
223	0xbb4aafcc	-0.0030927537
224	0x3de5433b	0.11194464
225	0xbc62e929	-0.013849535
226	0x3c54678c	0.012964141
227	0xbb6983c6	-0.0035631522
228	0x3ce76956	0.02824847
229	0xbc238c7e	-0.009982226
230	0x3bef9969	0.007311989
231	0x3c09825c	0.0083928965
232	0x3be23b8b	0.0069040707
233	0x39b5423f	0.00034572367
234	0xbbde8f17	-0.00679196
235	0xbc066035	-0.0082016485
236	0x3b91aa99	0.0044453857
237	0x3cb0db2c	0.021588884
238	0xbc4c5baa	-0.012473026
239	0x3b809db2	0.0039250487
240	0x3be6031d	0.007019414
241	0x3ac5adad	0.0015081667
242	0xba88c24c	-0.0010433882
243	0xbab1c082	-0.00135614
244	0xbe4cec9a	-0.20012131
245	0xbd0bd5c4	-0.03413941
246	0x3c01b0d7	0.007915697
247	0xbec4f0d8	-0.38465
248	0x3add22b1	0.0016871301
249	0x3ef34615	0.47514406
250	0xbe31a136	-0.17346653
251	0x3e486873	0.19571094
252	0xbc360cb5	-0.011111428
253	0x3bb8cd84	0.0056397337
254	0x3ca83f0b	0.020537874
255	0x3c212d86	0.009837514

weight f4 [100, 160]
0	0x3d6e8b11	0.058238093
1	0xbb0849bf	-0.002079591
2	0xbd6d19e0	-0.057886004
3	0xbaa14cb1	-0.0012306181
4	0x3bb91e7c	0.005649386
5	0xb9365f18	-0.00017392298
6	0xb9efb69c	-0.00045721687
7	0x3a68ea73	0.00088850333
8	0x3a6a108d	0.0008928858
9	0xbb22692b	-0.0024781923
10	0x3b86c4ea	0.0041128295
11	0x3e7bee66	0.2460266
12	0x3c40a1fd	0.011757371
13	0xbd0ec868	-0.03485909
14	0xbb04b043	-0.0020246662
15	0x39f4a1dc	0.000466599
16	0xbb1fab91	-0.0024363736
17	0xba5d2d53	-0.0008437235
18	0xba3e5923	-0.0007261207
19	0x3a9f55d2	0.0012156314
20	0xbd990035	-0.074707426
21	0x3ae211fd	0.0017247793
22	0x3b903424	0.004400747
23	0xbd25ffce	-0.040527157
24	0xba2e3c0e	-0.0006646522
25	0xbe9ff59b	-0.3124207
26	0xbe2e6840	-0.17031956
27	0x3dfcf273	0.12350931
28	0xbb6e4704	-0.0036358247
29	0xb9c95f4c	-0.0003840871
30	0xbd0fdcbf	-0.03512263
31	0x39a847ab	0.00032096854
32	0x3d95fbeb	0.0732344
33	0xbb19ed81	-0.002348751
34	0xbd828c70	-0.063744426
35	0xbbbb6612	-0.005718955
36	0xbc91e834	-0.017810918
37	0xba3cd721	-0.00072036876
38	0x3a785c2c	0.0009474184
39	0xbb33cd61	-0.0027435648
40	0x3a18e23c	0.00058320514
41	0x3b3e837e	0.0029070075
42	0xbacbcd13	-0.0015548788
43	0x3e674157	0.22583519
44	0x3cbf74be	0.023371097
45	0xbceb02ae	-0.028687801
46	0x3b35424f	0.0027657931
47	0x3ab79551	0.0014006292
48	0xbb1b42c5	-0.002369092
49	0x3ab13d1c	0.001352224
50	0xbb426bd0	-0.0029666312
51	0xba8be7b9	-0.0010673917
52	0xbd9cdb7c	-0.07659051
53	0xbad54eaf	-0.001627406
54	0x3ae0df3d	0.0017156374
55	0xbcbcb1d9	-0.023034023
56	0x3b4a50d3	0.003087093
57	0xbe954270	-0.2915225
58	0xbe35d980	-0.17758751
59	0x3dec3bac	0.11534819
60	0x3b894317	0.004188906
61	0x3ac3c1be	0.0014935059
62	0xbd8382ca	-0.064214304
63	0x3b99271f	0.004673853
64	0x3d9fa3d0	0.07794917
65	0xbad22b1d	-0.0016034577
66	0xbd9db640	-0.07700777
67	0x3b5df8f2	0.0033870307
68	0xbcab066b	-0.020877084
69	0xbac47813	-0.0014989398
70	0x3b811681	0.0039394503
71	0x3b1aec73	0.002363947
72	0x3a565e2f	0.00081774866
73	0xbb1382f5	-0.0022508476
74	0xbbbe6b32	-0.0058111185
75	0x3e690dd7	0.22759186
76	0x3cfce834	0.030872442
77	0xbce97606	-0.02849866
78	0x396c61b4	0.00022543111
79	0x3b23c646	0.0024990006
80	0x3b51358d	0.0031922788
81	0x3b4bbf89	0.0031089506
82	0x3abfbb28	0.001462792
83	0xba0d1a43	-0.00053826364
84	0xbd5639ea	-0.052301325
85	0xbc340362	-0.010987135
86	0x3acc4dae	0.0015587115
87	0xbce35def	-0.027754752
88	0xba9f51f4	-0.0012155161
89	0xbe99f643	-0.30070695
90	0xbe36c6a2	-0.1784921
91	0x3de83339	0.11337895
92	0x39ca6f42	0.00038611336
93	0x3a0e42c6	0.000542682
94	0xbd127c0d	-0.035762835
95	0x3aa4fe0d	0.001258792
96	0x3d9492af	0.0725454
97	0xbb50fc7e	-0.0031888778
98	0xbda78528	-0.081796944
99	0xb93f45d1	-0.00018241188
100	0xbd0128ad	-0.031532932
101	0xbaceb046	-0.0015769086
102	0x3b82d4ca	0.0039926516
103	0x3bae9719	0.005328071
104	0xba96b04b	-0.0011496631
105	0xb9f30e06	-0.0004635902
106	0x3b85e494	0.0040860865
107	0x3e5b2ca2	0.21403745
108	0x3c8aa759	0.0169255
109	0xbd129eea	-0.035796084
110	0x3b7574a1	0.003745355
111	0x3b297dfb	0.0025862444
112	0xbb49795b	-0.00307425
113	0x3b9b68f4	0.004742736
114	0xb9931977	-0.00028056998
115	0x3ad66103	0.0016355816
116	0xbce18e54	-0.027533688
117	0x3c0ffe92	0.008788722
118	0x3b215fa9	0.0024623668
119	0xba2e7f31	-0.0006656526
120	0xbaa8535f	-0.0012842229
121	0xbe9beeb5	-0.30455557
122	0xbe4208a5	-0.1894861
123	0x3df83f40	0.12121439
124	0xb9afc460	-0.00033524912
125	0x391e72be	0.00015110799
126	0xbc54c455	-0.012986262
127	0x3b803bb8	0.003913369
128	0x3d8a0173	0.06738558
129	0x39b381c4	0.00034238223
130	0xbdd0f651	-0.10203231
131	0xbb93d9d7	-0.0045120525
132	0x3bc7bd47	0.0060955617
133	0x3b68d7e4	0.0035529071
134	0xbb9668d8	-0.004590135
135	0xbb52e115	-0.0032177616
136	0x3b167f2e	0.0022963989
137	0x3af359cd	0.0018566191
138	0x3a75e6fa	0.00093804265
139	0x3e6361a9	0.22205223
140	0x3b28b8be	0.002574488
141	0xbca319b5	-0.019909719
142	0xbb93fa7f	-0.0045159454
143	0xbb068051	-0.002052326
144	0xbaae0769	-0.0013277355
145	0xbbf1554c	-0.0073649045
146	0xbaf686e7	-0.0018808515
147	0xbac4627c	-0.0014982964
148	0xbd1d0432	-0.03833408
149	0x3b513a82	0.0031925743
150	0x3ab83656	0.0014054279
151	0xbd080d7b	-0.03321598
152	0x3b9a30ac	0.004705509
153	0xbea19025	-0.31555286
154	0xbe3c0e4a	-0.18364826
155	0x3e1866d0	0.1488297
156	0x3aadd400	0.0013262033
157	0xba18ed27	-0.00058336783
158	0xbc57fc83	-0.013182762
159	0xbbb73b3c	-0.005591778
160	0xbd252ed9	-0.04032788
161	0xbb097bcc	-0.002097833
162	0x3dbbdb92	0.09172739
163	0x389504d5	7.105774e-05
164	0x3c9283b8	0.017885074
165	0xbbd5859e	-0.0065161726
166	0x3b2c1e4e	0.002626318
167	0xb8515528	-4.990879e-05
168	0x3b8a0789	0.004212324
169	0x3b33427e	0.0027352865
170	0xbb4b2871	-0.0030999447
171	0x3cbdaae8	0.023152784
172	0x3dc62eef	0.096769206
173	0xba8ae687	-0.0010597267
174	0xbb584d6a	-0.0033005127
175	0x3b0844c1	0.0020792934
176	0xbb3c71af	-0.0028754284
177	0x3b95dabc	0.0045731943
178	0xba093326	-0.0005233757
179	0x3ad4a041	0.0016222076
180	0xbc6535d8	-0.013989888
181	0xbc9def36	-0.019279104
182	0xbaf1d63b	-0.0018450686
183	0x3e22b789	0.15890326
184	0x3b2178b7	0.0024638602
185	0xbe0a63a6	-0.13514575
186	0xbd06a12a	-0.03286854
187	0xbe0d7a21	-0.1381612
188	0xbb3bab87	-0.0028636174
189	0xba2c0cad	-0.0006563168
190	0xbc7db125	-0.015484129
191	0x3b04948f	0.002023015
192	0xbd84ad20	-0.064783335
193	0x3aa35ddf	0.0012463889
194	0x3dc16ac2	0.094441906
195	0xbb020a17	-0.001984244
196	0x3bead6aa	0.007166703
197	0x3a257ed6	0.00063131505
198	0xbb9b54c8	-0.0047403313
199	0xbaaa1ef8	-0.00129792
200	0x3ba4edb5	0.0050332197
201	0x3a7c6dff	0.0009629428
202	0x3b0b2229	0.0021230078
203	0x3cf05845	0.029338965
204	0x3da8fc8e	0.08251296
205	0x3b4dc461	0.0031397569
206	0x3b28468d	0.0025676817
207	0xb92e498b	-0.0001662133
208	0xbb501bb9	-0.0031754805
209	0xbb6d5c92	-0.0036218506
210	0xbb87139f	-0.004122212
211	0x3bb0bbe4	0.005393492
212	0xbcddfb77	-0.027097447
213	0xbd002c78	-0.03129241
214	0x3b4c78aa	0.003119985
215	0x3e255882	0.16147044
216	0x3bd97db9	0.0066373018
217	0xbdf289ab	-0.11842664
218	0xbcb82beb	-0.02248188
219	0xbe22eb07	-0.15909968
220	0x3b51b4b9	0.0031998588
221	0x3a27a482	0.0006395058
222	0xbc3cbc09	-0.01151944
223	0xbb12c51e	-0.0022395323
224	0xbd82cbb2	-0.06386508
225	0xbb049a78	-0.0020233672
226	0x3d869d83	0.06573012
227	0x3bd6513f	0.006540447
228	0x3c1d8d77	0.009616247
229	0xbc056b2c	-0.008143228
230	0x39a3fff8	0.00031280494
231	0x3c0bf43f	0.0085421195
232	0x3b73deeb	0.0037211727
233	0xbac27121	-0.001483474
234	0xbc45b330	-0.012066647
235	0x3c517cf9	0.012786143
236	0x3db5909e	0.08865474
237	0x3b9a134f	0.004702009
238	0xbb8ada4d	-0.0042374493
239	0xbbe4eabd	-0.006985991
240	0x3c307c9c	0.010771897
241	0x3ba2b401	0.004965306
242	0x3bc5c7e4	0.0060357917
243	0x3b86f799	0.0041188714
244	0xbc969933	-0.018383598
245	0xbd045780	-0.03231001
246	0xbb86e78c	-0.004116958
247	0x3e30b7c9	0.17257608
248	0x39b79157	0.00035012767
249	0xbdfbf104	-0.123018295
250	0x3ca7c3be	0.02047908
251	0xbe2a2003	-0.16613774
252	0xba44c87e	-0.00075066823
253	0x3a49696d	0.0007683251
254	0xbcc4472b	-0.023959717
255	0x3b1e6b07	0.002417268

bias f4 [100]
0	0xbd1ea603	-0.03873254
1	0x3e19f5a3	0.15035109
2	0xb5652100	-8.535717e-07
3	0x3dc9cc08	0.09853369
4	0xbd3f5c80	-0.046719074
5	0x3d947d4d	0.07250462
6	0x92c87b30	-1.2652143e-27
7	0x3bb46fee	0.005506507
8	0xae049ede	-3.0154428e-11
9	0x9e331bcf	-9.481932e-21
10	0xb74a4117	-1.2055293e-05
11	0x3c6b6246	0.014366692
12	0x3e0a911d	0.13531919
13	0xb62dc712	-2.5894883e-06
14	0xbb909ca6	-0.004413205
15	0x3dc40ec6	0.0957313
16	0x3d44115d	0.04786812
17	0xac643798	-3.243161e-12
18	0xbb63979e	-0.0034727822
19	0x8bc53fc8	-7.597761e-32
20	0xb8378ed9	-4.3763637e-05
21	0xb98d384f	-0.0002693557
22	0x1c6392bf	7.5297665e-22
23	0x3ca44d18	0.020056292
24	0xbd624de1	-0.055250052
25	0x33d1ff24	9.778731e-08
26	0xbdaa4e0f	-0.0831567
27	0x3e752836	0.2394112
28	0x3b511d62	0.0031908383
29	0x3cc1f8f9	0.02367829
30	0x966075eb	-1.8131784e-25
31	0xbdd76576	-0.10517399
32	0xbd29bd77	-0.041440453
33	0xbd85c262	-0.06531216
34	0xbd831731	-0.06400908
35	0xb6d95424	-6.476899e-06
36	0x3dff43ea	0.124641255
37	0xb5ee1d49	-1.7740905e-06
38	0x07dd169e	3.3265677e-34
39	0x99b9c270	-1.9207084e-23
40	0x3ed172f2	0.4090801
41	0xba38b558	-0.00070460653
42	0x23b11ed5	1.9203436e-17
43	0xb4fe15ba	-4.7326995e-07
44	0x3e808712	0.2510305
45	0xbb6ebe5c	-0.003642938
46	0xbdbf589b	-0.09343072
47	0x392dd3fb	0.00016577535
48	0x1b08e99a	1.1325137e-22
49	0xbd4cb7bc	-0.04997991
50	0xb84a8d21	-4.829199e-05
51	0x3d09e9eb	0.033670347
52	0xbb985dbe	-0.004649847
53	0x3b40f2f1	0.002944168
54	0xbe323851	-0.17404296
55	0x3c5f2d4c	0.013621639
56	0xb5156152	-5.5648445e-07
57	0x3de29776	0.11064045
58	0xab5ab26e	-7.769678e-13
59	0xbc7f6fc1	-0.015590609
60	0xb3910309	-6.752641e-08
61	0x3c36b342	0.011151137
62	0xad25a076	-9.414794e-12
63	0x3cc5894a	0.024113316
64	0x3f177fe6	0.5917953
65	0x3dc7264d	0.09724102
66	0xaefd43b7	-1.15171366e-10
67	0x3d9c7e0a	0.076412275
68	0xa38ac3ad	-1.5044862e-17
69	0x3478efc2	2.3184023e-07
70	0x9d587c85	-2.8651737e-21
71	0xa8402ce0	-1.0667872e-14
72	0x9cc6db5b	-1.3159243e-21
73	0xbddf1a42	-0.1089368
74	0x3774df9d	1.4595597e-05
75	0xa0878986	-2.2960895e-19
76	0xbbb331a2	-0.005468563
77	0xbe13ac41	-0.14421178
78	0x3d6eeb96	0.05833014
79	0xbac7eef7	-0.0015253712
80	0x3e833cd3	0.25632343
81	0xbdb52655	-0.08845202
82	0x3d5adbf1	0.05343241
83	0xbc8e8b7e	-0.0174005
84	0x3e1a48db	0.15066855
85	0x3ca8bf32	0.020598982
86	0xbe953e41	-0.29149058
87	0xab5538e4	-7.5751753e-13
88	0xbcb7e85e	-0.022449668
89	0x3d2eed1b	0.04270659
90	0xa7d13c4d	-5.807453e-15
91	0xbd3007ae	-0.042976074
92	0x3e77ac76	0.24186882
93	0xbd0c3c00	-0.034236908
94	0x3c032d2c	0.008006375
95	0x3dc6e4dc	0.0971162
96	0xbdb82c27	-0.089927964
97	0xb81db489	-3.7599853e-05
98	0x3a881965	0.0010383545
99	0x3e48d863	0.19613795

weight f4 [1, 200]
0	0xbf30ae50	-0.6901598
1	0xbf094cbf	-0.5363273
2	0xb6475592	-2.970312e-06
3	0xbf4c2ed0	-0.7975893
4	0xbf2212fe	-0.6331023
5	0xbedf76b7	-0.4364526
6	0x926aff44	-7.415202e-28
7	0xbef9ce03	-0.48789987
8	0x2b71a3fb	8.584797e-13
9	0x1fa6cd06	7.064292e-20
10	0xb61f3113	-2.3721411e-06
11	0x3f0ad0f8	0.5422511
12	0xbf161fd9	-0.58642346
13	0x2fa8a8c1	3.067893e-10
14	0xb905e2eb	-0.00012768402
15	0xbf258fc2	-0.6467248
16	0xbf02b65a	-0.51059496
17	0xac72e25f	-3.451593e-12
18	0xb948898e	-0.0001912473
19	0x8aa785a8	-1.6131791e-32
20	0xb7abdb72	-2.0486976e-05
21	0x377577d1	1.4631035e-05
22	0x9ca303ab	-1.0787383e-21
23	0xbed75481	-0.4205666
24	0xbece0e10	-0.40245104
25	0x3299e424	1.791529e-08
26	0xbf07c8b9	-0.53040653
27	0xbf22f8c1	-0.6366082
28	0xbeab71e4	-0.3348533
29	0xbebaf026	-0.36511344
30	0x15e7cdea	9.362503e-26
31	0xbf2e263e	-0.680271
32	0xbf3aa26f	-0.72904104
33	0xbf15a1b8	-0.5844989
34	0xbecdad66	-0.40171355
35	0xb69892e8	-4.547055e-06
36	0x3f067ac9	0.52531105
37	0xb48e9c4c	-2.6563282e-07
38	0x87a0767e	-2.4143768e-34
39	0x18fe7579	6.577608e-24
40	0x3f338502	0.7012483
41	0xb976c405	-0.00023533411
42	0xa2c3ab17	-5.3036004e-18
43	0xb50e526f	-5.301908e-07
44	0xbf05fa5c	-0.52335143
45	0xbebee2d6	-0.37282437
46	0xbf21efb8	-0.63256407
47	0xb8afb623	-8.378576e-05
48	0x1ac5b69e	8.1772324e-23
49	0xb91380dd	-0.00014067018
50	0xb5274794	-6.231651e-07
51	0xbf1a7e0f	-0.603486
52	0xbf0555e3	-0.5208418
53	0xbefa603c	-0.48901546
54	0xbf2ba754	-0.670522
55	0xbed993ad	-0.4249548
56	0x33047d75	3.0847747e-08
57	0xbee7fd93	-0.4531065
58	0x29f8028f	1.1013856e-13
59	0xbf194db1	-0.5988417
60	0x3198cd79	4.4471418e-09
61	0xbedfc9d4	-0.4370867
62	0x21dbfd38	1.4907044e-18
63	0xbecd8934	-0.4014374
64	0x3f6f2993	0.9342281
65	0xbeee6f9e	-0.46569532
66	0x2d9e003d	1.7962626e-11
67	0x3e22cc28	0.15898192
68	0xa3266860	-9.02098e-18
69	0x33a21ca3	7.548922e-08
70	0x1de716e2	6.116885e-21
71	0xa9b60970	-8.084061e-14
72	0x1ee50d98	2.425194e-20
73	0xbf0d4506	-0.55183446
74	0xb90f26e2	-0.00013652028
75	0xa09dd6de	-2.6739022e-19
76	0x3a305289	0.0006726166
77	0xbf02a1bf	-0.51028055
78	0xbeef61b0	-0.46754217
79	0xbb5779d4	-0.0032879012
80	0x3f20478f	0.6260919
81	0xbeced71f	-0.403985
82	0xbf21347f	-0.6297073
83	0xbf055c54	-0.52094007
84	0xbf0a322a	-0.53982794
85	0xbf072218	-0.527864
86	0xbf54acca	-0.83076155
87	0xab6643f8	-8.180674e-13
88	0x3762c919	1.3517471e-05
89	0xbf0e0e77	-0.5549082
90	0x1d8f565d	3.7941082e-21
91	0xbf13f429	-0.57794434
92	0xbf3ca4a1	-0.73688704
93	0xbf18518c	-0.5949943
94	0xbede0b51	-0.4336801
95	0xbf08d506	-0.5345005
96	0x3f0249ed	0.5089405
97	0x382b950d	4.090839e-05
98	0xbf5bf0f8	-0.85914564
99	0xbee154fc	-0.4401015
100	0x3f3bdb68	0.7338166
101	0x3ed3f592	0.41398293
102	0x3586671e	1.0013789e-06
103	0x3f4e145c	0.80499816
104	0x3f2abe25	0.6669639
105	0x3ee39ef3	0.44457206
106	0x11c8d2a8	3.1684263e-28
107	0x3f0da185	0.55324584
108	0x2d3f8976	1.08876155e-11
109	0x9f535ec5	-4.475938e-20
110	0xb68d0115	-4.2022534e-06
111	0xbf19019f	-0.597681
112	0xbf311a24	-0.6918051
113	0x30818302	9.42322e-10
114	0x39d515e7	0.00040642844
115	0x3f259811	0.6468516
116	0x3f05e394	0.5230038
117	0x2c82c387	3.71653e-12
118	0x399dc72e	0.00030093774
119	0x8986bb85	-3.243567e-33
120	0x398f511c	0.00027335517
121	0xb8383d33	-4.3926015e-05
122	0x1cf54d53	1.6232728e-21
123	0x3ef9c427	0.48782465
124	0x3ee3c553	0.44486484
125	0x34c4ee92	3.6681428e-07
126	0x3f0ed50a	0.5579382
127	0x3f28d177	0.6594462
128	0x3ebd5f73	0.36986884
129	0x3eb74b1f	0.357995
130	0x15284b98	3.3986963e-26
131	0x3f325cb0	0.6967268
132	0x3f3d3683	0.73911303
133	0x3f13c356	0.57719934
134	0x3eea023e	0.45704836
135	0xb4827d0a	-2.4305365e-07
136	0xbf083ecb	-0.53220814
137	0x35a22898	1.2081755e-06
138	0x08857d27	8.0340695e-34
139	0x1a076ba5	2.80043e-23
140	0xbf29bffe	-0.6630858
141	0x390dcc12	0.0001352283
142	0x24073709	2.9320075e-17
143	0xb5181fd8	-5.667075e-07
144	0x3ebfe768	0.37481236
145	0x3ebe5077	0.37170765
146	0x3f1b2e84	0.6061785
147	0x39e166fc	0.00042992074
148	0x1b680380	1.9191721e-22
149	0xbb9f984e	-0.004870451
150	0x3486aec6	2.508661e-07
151	0x3f13d17a	0.5774151
152	0x3f03f0a2	0.5153905
153	0x3edd4f61	0.43224624
154	0x3f2c2836	0.6724886
155	0x3edf1fb5	0.43578878
156	0xb2b654cd	-2.1226152e-08
157	0x3ee10082	0.439457
158	0x288af9e0	1.5429444e-14
159	0x3f0a79da	0.5409218
160	0xb3b4079f	-8.3832894e-08
161	0x3ef1fe22	0.472642
162	0x21118ee9	4.931705e-19
163	0x3ee20bb9	0.4414957
164	0xbf6816a4	-0.90659547
165	0x3eeaa1dd	0.45826617
166	0xb21ea16c	-9.2335135e-09
167	0xbe0e3e6b	-0.13890998
168	0x2176d9e5	8.3636423e-19
169	0x3521ec29	6.032083e-07
170	0x9d03f03d	-1.7461906e-21
171	0xa874ae7a	-1.35825545e-14
172	0x1e8df490	1.5030104e-20
173	0x3f0e014e	0.5547074
174	0x393e5ef8	0.0001815519
175	0x9fe48855	-9.67873e-20
176	0xb95c1e50	-0.00020992127
177	0x3f0958cf	0.53651136
178	0x3f0eee9a	0.5583283
179	0x3c0c800c	0.008575451
180	0xbf0342d5	-0.5127385
181	0x3ed6b19e	0.41932386
182	0x3f2a5968	0.66542673
183	0x3f1533d2	0.58282197
184	0x3f15ce4d	0.58517915
185	0x3f0f0372	0.5586463
186	0x3f54e330	0.8315916
187	0x2a4247b2	1.7255536e-13
188	0xbc1b92b4	-0.009495426
189	0x3f0adef9	0.5424648
190	0x959cc131	-6.33127e-26
191	0x3f120b54	0.57048535
192	0x3f3ec5be	0.7452048
193	0x3f17aec4	0.59251046
194	0x3ee4c995	0.44685045
195	0x3edcc03a	0.43115407
196	0xbf0538ef	-0.5204
197	0xb7233dae	-9.729918e-06
198	0x3f4df493	0.80451316
199	0x3f01d2f6	0.50712526
