test/models/checkpoint.pt (torch, 349793 bytes, 18 tensors)

weight f4 [99, 32]
000000 f9 6e c0 3d 65 35 70 3d 83 1a 84 3c 8b 56 73 3d
       0.09396166 0.05864467 0.016125923 0.059408706
000010 60 7d e7 3a cf 91 90 bd 58 de 1f bd ff 2e 38 3d
       0.0017661266 -0.07059061 -0.039030403 0.044966694
000020 4f 2e da 3c de 52 c6 bc 3b 67 c1 3c 3f 2a 97 3e
       0.02663341 -0.024209436 0.023608794 0.2952442
000030 01 f2 1e be 31 63 7d bc 3b 5a 5e bd 39 8c 26 3e
       -0.15522005 -0.015465544 -0.05428527 0.16264428
000040 d0 c7 b6 3c c5 c3 2c 3d 2f ed ec 3c 21 98 db 3c
       0.022312075 0.042178888 0.028921692 0.02680594
000050 4a 94 33 be 06 43 e2 ba f3 12 14 bb ce 2f 35 bd
       -0.17537037 -0.0017262406 -0.0022594302 -0.044235043
000060 9c 99 44 3c 38 5c 0a bf 09 39 dc bc 46 14 ba 3d
       0.011999514 -0.54046965 -0.026882665 0.09085898
000070 6e ce a2 bd 4b c5 c6 bb 18 32 81 bc 87 fd d7 3c
       -0.079495296 -0.0060659996 -0.015770957 0.026366008
000080 3e 99 0a bd b8 d0 18 be 42 24 11 be 11 c8 05 3d
       -0.03383755 -0.1492337 -0.14173988 0.0326615
000090 5f 4a a1 bb bd 02 52 bd 06 36 4b bd ef 8e 5b be
       -0.004922196 -0.051272143 -0.049612068 -0.21441244
0000a0 f6 cb 95 3d aa 5f ca bc 94 0d 73 3c 0a d8 e4 bd
       0.07314293 -0.02470382 0.01483478 -0.11174019
0000b0 b1 20 c7 be 73 ae f4 3b 29 e8 03 be 9e a5 0f 3d
       -0.3889213 0.007467085 -0.12881531 0.035070054
0000c0 6d a6 4a 3c e6 7f 0b 3c 59 ed 40 3d fd 1c e1 3a
       0.012368781 0.00851438 0.047101352 0.0017174777
0000d0 61 10 5d 3d 6b a1 ac bc ac 48 36 bd 0b 2c 88 bd
       0.0539707 -0.021073064 -0.0445029 -0.066490255
0000e0 bf 9f 63 bc cd df 8f bd 83 3f 96 3d 65 68 9a bc
       -0.013893067 -0.070251085 0.07336333 -0.018848607
0000f0 f3 4c c3 3d 0e 36 b3 3a df a3 29 3d ac 76 fb 3a
       0.09536161 0.0013672726 0.041416045 0.0019185147
000100 a9 c1 c3 3b de 24 3d be 23 17 b5 3d 31 dc 83 3d
       0.005974014 -0.18471095 0.088423036 0.064384826
000110 88 dc d0 3d aa 84 a8 3c 52 77 8d bc c0 b7 aa bc
       0.10198313 0.020571072 -0.01726881 -0.020839572
000120 c4 0d 01 3e ce c4 84 bd 0f 0f e4 3c 2e 2d 91 3d
       0.12602907 -0.0648285 0.027839212 0.070886955
000130 91 12 04 3e 70 11 cd bd db 73 17 be 9f fa 24 be
       0.12897708 -0.100130916 -0.14790289 -0.1611123
000140 d0 6e 64 bd d4 f4 43 bc 5e 70 e8 bc eb 66 c3 3c
       -0.05576974 -0.011960227 -0.028373893 0.023852786
000150 97 b1 78 3e 15 9c f8 bc e2 37 ca 3d 06 a8 91 bd
       0.24286495 -0.030347863 0.0987394 -0.07112126
000160 17 ca ad bd 87 93 33 3e b8 8f ad 3e a0 f0 a8 be
       -0.08485811 0.17536746 0.3389871 -0.32996082
000170 b6 7a 93 3a 2c 4f 43 3d 48 12 c2 bc 50 26 a1 3d
       0.0011251781 0.047682926 -0.023690358 0.07868636
000180 17 bc 67 3c df 21 c8 bd 52 8e d6 bc 60 c6 39 bd
       0.014143965 -0.097720854 -0.02619091 -0.0453552
000190 ab bc 02 3d db 21 2c bc a8 5e 82 b9 3e ac 8e bd
       0.03191821 -0.010506119 -0.00024866057 -0.06966446
0001a0 f3 8b 8f 3d a6 be 1c bc 2b bf 24 3d 24 74 0f be
       0.07009115 -0.0095669385 0.040221374 -0.14009148
0001b0 1d e4 8b be ec f5 f6 bb 21 56 97 bd 55 ae 39 bc
       -0.27322474 -0.0075366404 -0.07389475 -0.011333068
0001c0 76 e1 bd 3b 22 7b 82 3c e2 9d b5 3c 31 ff 60 bc
       0.0057946993 0.015927855 0.022170011 -0.013732717
0001d0 92 4c 89 3d 51 e1 b7 3c 15 f9 d3 bb e7 48 5e bc
       0.06704058 0.022446306 -0.006468902 -0.013567186
0001e0 2d 02 16 bb c3 6d f6 bd f7 a8 67 3d 51 bd 7d 3b
       -0.002288948 -0.12032654 0.05655762 0.0038717578
0001f0 11 1e 78 3d 1e df 09 bd 77 5c 22 3d 3a bb b0 ba
       0.06057555 -0.033660047 0.039638963 -0.0013483532
000200 36 be 78 3d 14 2c e1 bd f3 69 a0 bc c0 c2 69 bd
       0.060728274 -0.10994735 -0.01958177 -0.057070494
000210 d9 d6 74 bb b9 3b d5 37 57 a3 fd bc 9e fb b4 bc
       -0.0037359504 2.541939e-05 -0.030961676 -0.022092637
000220 19 72 3b 3c df 18 87 bc 14 e3 50 bc 33 e9 75 be
       0.011440777 -0.016491352 -0.012749452 -0.2401474
000230 6e f4 a7 bc 9f cf 06 3d 76 00 6f bd ce b0 d4 bd
       -0.020502295 0.032912847 -0.05835005 -0.10385285
000240 9f 08 86 bc 4f 07 c4 bc c8 a5 3c 3d 00 29 08 39
       -0.016361533 -0.023929266 0.04605654 0.00012985244
000250 89 d5 88 3d fc 25 8b bd 70 5d bf bc 88 c3 3f 3e
       0.066813536 -0.06794354 -0.023359984 0.18726933
000260 55 fe f2 bc 07 ee ff bd fb 2e 9c bc 97 ad 8c 3d
       -0.02966229 -0.12496572 -0.01906537 0.06869047
000270 e8 cc 05 3e aa c4 9e 3d 24 6b b9 3d 8e 25 62 3c
       0.13066447 0.077523544 0.090536386 0.013802899
000280 d6 72 ed 3d 1a b9 9c 3c e7 e3 4c bc 95 6c 89 3d
       0.11594169 0.019131232 -0.012505508 0.067101635
000290 11 20 88 3d d8 c4 31 3d 9f f4 2d 3d 5e a1 b2 be
       0.06646741 0.043400615 0.042469617 -0.34888738
0002a0 d8 74 a5 3e 5a 0c 1e be ea fc 5e 3c c5 61 88 3e
       0.32315707 -0.15434399 0.013610104 0.26637092
0002b0 14 ee f1 be ba 19 08 3d 97 4a d5 bd 3b 2a c5 be
       -0.47251952 0.03322766 -0.104146175 -0.38508782
0002c0 90 ac 3f bb 76 5d 68 3b c0 2d 60 bd a9 c6 42 bd
       -0.0029247142 0.0035456098 -0.05473113 -0.04755274
0002d0 f6 89 c5 39 f2 8d e6 3c e4 dc 60 bc 1f 51 af 3e
       0.00037677557 0.028143857 -0.013724539 0.34241578
0002e0 c8 c2 e8 3c ba 7c 9e 3d b1 9f 58 3f ee 9d 0f 3f
       0.028413191 0.077386335 0.8461867 0.56100357
0002f0 35 c5 ec 3c 8b f4 bb bc a9 ff 8e 3d 40 cd 12 bc
       0.02890263 -0.022943756 0.06982357 -0.008960068
000300 f8 a1 f6 3e 93 53 a5 bc 82 d6 e6 be 9b fc 32 3d
       0.48170447 -0.020181453 -0.4508553 0.043697935
000310 3c d0 05 be 61 88 11 3c de d4 36 3d 7f 24 db be
       -0.13067716 0.008882613 0.0446366 -0.42801282
000320 27 50 ea be ce 27 4a 3e aa 6a f9 3c bb 32 6c 3e
       -0.45764276 0.19741747 0.03044637 0.23066227
000330 bc c4 ab 3e 3d fc 0b 3f 73 b4 d5 3e 8a 90 9e bd
       0.33548534 0.5468176 0.41739234 -0.077424124
000340 7a 6d 79 3c 88 e0 04 bc 76 6d 8d 3d 13 69 15 3d
       0.015223855 -0.008110173 0.06905644 0.03647716
000350 be 27 53 3d 44 7d 41 bb d6 a0 83 bd d5 a2 55 3e
       0.051551573 -0.0029524127 -0.064271614 0.20862897
000360 57 26 2a 3d 14 86 e4 3e 22 c9 dd 3d 2b 01 fc 3d
       0.04154047 0.44633543 0.10829379 0.1230491
000370 a6 8d a9 3e fe 7c fd 3b b5 d7 87 be 37 61 c0 3b
       0.33115882 0.0077358475 -0.2653176 0.005870964
000380 40 7b a7 be c0 f5 ca 3d 20 64 59 be a0 20 5b be
       -0.3271122 0.09910154 -0.21229601 -0.21399164
000390 75 e9 07 3b 3b 27 6f 3d f2 f3 f5 bc c8 5f 66 be
       0.0020738516 0.058387022 -0.030023549 -0.22497475
0003a0 33 ac f8 bd 5d c9 74 3d 92 fc 14 3d 41 1b 9c bd
       -0.121422194 0.059762347 0.036373682 -0.07622386
0003b0 1b 05 5a 3e 75 03 98 3d 15 27 a6 3e 01 95 ab 3d
       0.2129101 0.074225344 0.32451692 0.083780296
0003c0 64 04 ac bd 50 32 e2 bd e2 91 c7 bc d7 7e 25 bd
       -0.08399275 -0.110447526 -0.024361555 -0.040404167
0003d0 da ff 1b 3e 60 0f 97 b8 08 a7 e8 bd 50 1d 57 be
       0.15234318 -7.203105e-05 -0.11359984 -0.21007276
0003e0 fa fc 90 3c 00 9f ea 3e 00 02 82 be a0 f2 9b be
       0.017698754 0.45824432 -0.2539215 -0.30458546
0003f0 03 8a 11 3d f9 d6 38 3d 26 d8 9f be d9 60 12 bd
       0.03553201 0.04512689 -0.31219596 -0.035736892

weight f4 [64, 128]
000000 43 0b 01 80 4c 22 04 00 cd 08 00 00 ec 47 01 80
       -9.5875e-41 3.79645e-40 3.157e-42 -1.17636e-40
000010 5f 4e 06 80 48 62 03 80 69 34 02 00 f9 c1 04 00
       -5.79127e-40 -3.10763e-40 2.02472e-40 4.36926e-40
000020 c1 87 03 80 05 f0 05 80 6e ee 02 00 ae 26 00 80
       -3.24206e-40 -5.4528e-40 2.69203e-40 -1.3876e-41
000030 24 69 03 80 92 f4 02 80 90 c9 01 80 68 f7 01 80
       -3.13224e-40 -2.71406e-40 -1.64142e-40 -1.80588e-40
000040 eb d4 05 80 96 98 02 80 c4 6d 06 00 f3 95 05 00
       -5.35558e-40 -2.38409e-40 5.9039e-40 5.12969e-40
000050 c2 d8 00 00 7f 21 02 00 dc 34 00 80 ae 0c 02 00
       7.7758e-41 1.95687e-40 -1.8962e-41 1.8822e-40
000060 cd 8c 06 80 31 5b 01 80 1f f4 01 80 6f 1d 04 00
       -6.01523e-40 -1.24549e-40 -1.7941e-40 3.77901e-40
000070 4d 98 01 80 69 45 04 00 64 e4 01 00 65 e8 01 00
       -1.46471e-40 3.92242e-40 1.73767e-40 1.75203e-40
000080 49 29 01 00 e1 42 03 00 c1 a8 04 80 4f b8 02 80
       1.06646e-40 2.99498e-40 -4.2788e-40 -2.49788e-40
000090 e4 0d 02 00 2d ec 02 80 0a c4 00 80 8b f0 02 80
       1.88654e-40 -2.68395e-40 -7.0326e-41 -2.69962e-40
0000a0 b5 ac 02 80 e6 53 01 80 fb 26 03 80 3d 6f 01 00
       -2.45627e-40 -1.21933e-40 -2.8949e-40 1.3174e-40
0000b0 b8 80 01 80 47 1c 03 80 7b 1c 01 80 b1 69 01 00
       -1.38011e-40 -2.8565e-40 -1.02052e-40 1.2975e-40
0000c0 70 66 01 80 ec 41 01 00 79 94 02 00 5c cb 05 00
       -1.28583e-40 1.15484e-40 2.36933e-40 5.32129e-40
0000d0 0f 62 00 80 ee 3e 06 80 25 e8 02 00 9e 99 02 00
       -3.5177e-41 -5.73588e-40 2.66949e-40 2.38778e-40
0000e0 69 6a 01 00 88 3a 03 80 88 b2 01 80 c2 bf 02 80
       1.30008e-40 -2.96504e-40 -1.5588e-40 -2.52461e-40
0000f0 60 26 05 80 af 44 00 00 c7 19 05 00 aa 51 02 00
       -4.72944e-40 2.4639e-41 4.68425e-40 2.12967e-40
000100 8a b1 03 80 2d 35 06 00 67 ff 04 80 4f 14 03 80
       -3.39196e-40 5.70089e-40 -4.58963e-40 -2.82792e-40
000110 85 4a 01 00 8c 98 01 00 66 00 06 80 db 85 06 80
       1.18568e-40 1.46559e-40 -5.51156e-40 -5.99031e-40
000120 be ab 02 80 81 08 04 80 d1 99 02 80 5c 92 03 80
       -2.4528e-40 -3.70393e-40 -2.3885e-40 -3.2801e-40
000130 4c b3 03 80 29 a6 01 80 08 17 03 00 ce 12 00 00
       -3.39826e-40 -1.51443e-40 2.83769e-40 6.746e-42
000140 4b 5e 06 00 53 31 01 00 81 2a 03 80 fe cc 00 00
       5.84839e-40 1.0953e-40 -2.90754e-40 7.3537e-41
000150 58 2b 02 00 e0 07 03 80 9b ae 02 80 9d ad 01 00
       1.9922e-40 -2.78332e-40 -2.46308e-40 1.54116e-40
000160 af bc 03 00 cf fe 03 00 35 fd 04 80 44 a2 02 00
       3.43193e-40 3.66915e-40 -4.58176e-40 2.41881e-40
000170 c4 5b 01 80 2a c0 05 80 2c 02 04 00 21 2e 03 00
       -1.24755e-40 -5.28113e-40 3.68121e-40 2.92054e-40
000180 d0 b7 05 00 11 62 00 80 b7 c4 05 80 c9 3f 06 80
       5.25117e-40 -3.518e-41 -5.29745e-40 -5.73895e-40
000190 ea 04 04 80 c7 d0 02 00 29 88 02 80 29 53 01 80
       -3.69105e-40 2.58566e-40 -2.32516e-40 -1.21668e-40
0001a0 46 82 06 80 fe 97 05 00 78 1f 01 80 b8 50 03 80
       -5.97746e-40 5.13702e-40 -1.03124e-40 -3.04463e-40
0001b0 63 11 01 80 9b 2b 03 80 b0 51 03 80 fe f9 00 00
       -9.8073e-41 -2.91149e-40 -3.0481e-40 8.968e-41
0001c0 18 55 06 80 41 9e 01 00 f9 ba 02 80 cc 6b 03 80
       -5.81539e-40 1.48606e-40 -2.50744e-40 -3.14177e-40
0001d0 4d 83 02 00 00 54 06 80 95 ae 06 00 e5 35 03 00
       2.30773e-40 -5.81146e-40 6.13641e-40 2.9484e-40
0001e0 2e 61 03 00 27 27 03 80 04 c1 00 00 7f 66 01 80
       3.10368e-40 -2.89552e-40 6.9241e-41 -1.28604e-40
0001f0 79 1c 06 80 b0 44 01 80 9f e5 00 80 5b ad 01 80
       -5.61227e-40 -1.16476e-40 -8.2373e-41 -1.54024e-40
000200 76 58 01 00 2a d9 00 00 a6 43 03 00 1d 65 06 00
       1.2357e-40 7.7904e-41 2.99774e-40 5.87286e-40
000210 0e 9d 01 80 78 fb 03 00 ad 56 01 00 b0 73 04 80
       -1.48176e-40 3.65716e-40 1.22929e-40 -4.08843e-40
000220 f5 50 06 80 30 20 03 00 e6 a4 01 00 1f b1 04 00
       -5.80055e-40 2.87053e-40 1.5099e-40 4.30881e-40
000230 df f4 00 00 05 a9 05 80 40 7d 06 00 53 22 01 80
       8.7843e-41 -5.1981e-40 5.95944e-40 -1.04149e-40
000240 c8 27 01 00 b9 f7 03 00 54 ab 03 00 3b fa 02 80
       1.06106e-40 3.64373e-40 3.36967e-40 -2.73437e-40
000250 a4 11 04 00 da cc 02 00 4d da 00 80 e1 84 03 80
       3.7367e-40 2.57158e-40 -7.8312e-41 -3.23174e-40
000260 a9 a8 00 80 e8 6e 00 00 6b 49 04 80 df 54 01 00
       -6.0504e-41 3.9786e-41 -3.9368e-40 1.22282e-40
000270 c2 ee 00 80 1a 14 04 00 8d 23 04 80 87 3d 00 80
       -8.565e-41 3.74553e-40 -3.80095e-40 -2.2072e-41
000280 9e 97 03 00 8e d3 02 80 b7 15 01 00 67 c2 04 00
       3.29896e-40 -2.59563e-40 9.9625e-41 4.3708e-40
000290 99 d6 02 00 af b5 02 00 bd a0 05 00 9a 47 02 00
       2.60654e-40 2.48847e-40 5.1684e-40 2.09357e-40
0002a0 5f ce 05 80 33 02 03 00 48 e6 03 80 06 db 05 00
       -5.3321e-40 2.76295e-40 -3.58116e-40 5.37748e-40
0002b0 46 4a 06 00 ed d9 01 80 de af 02 00 71 57 03 00
       5.77657e-40 -1.70013e-40 2.4676e-40 3.06875e-40
0002c0 b1 43 02 00 29 ed 00 00 06 0e 05 80 07 98 02 00
       2.07954e-40 8.5077e-41 -4.64208e-40 2.38208e-40
0002d0 fd 54 06 00 6c d6 04 00 6f 33 05 80 1b 29 02 00
       5.81501e-40 4.44262e-40 -4.77628e-40 1.98417e-40
0002e0 98 6f 01 00 ed f7 01 80 3a dd 02 00 89 03 00 00
       1.31868e-40 -1.80775e-40 2.63032e-40 1.268e-42
0002f0 89 0e 02 80 db fc 00 00 24 f7 05 00 30 71 06 00
       -1.88885e-40 9.0707e-41 5.47835e-40 5.91617e-40
000300 13 3c 03 80 78 0b 02 00 48 26 03 80 d7 64 00 00
       -2.97057e-40 1.87785e-40 -2.89239e-40 3.6175e-41
000310 4b 3a 01 80 67 1d 03 80 86 18 03 00 cf 93 01 00
       -1.12747e-40 -2.86054e-40 2.84304e-40 1.44859e-40
000320 0a 33 03 80 46 80 03 80 2d 11 03 00 95 31 03 80
       -2.93816e-40 -3.21522e-40 2.81668e-40 -2.93293e-40
000330 22 87 03 80 d2 f7 00 00 32 c7 02 80 6f 93 00 00
       -3.23983e-40 8.8901e-41 -2.55129e-40 5.2889e-41
000340 19 75 04 80 12 fa 00 80 cd a5 02 80 d1 e9 02 80
       -4.09349e-40 -8.9708e-41 -2.43149e-40 -2.67549e-40
000350 8d b5 03 80 19 fe 00 00 42 89 00 00 99 c3 00 00
       -3.40635e-40 9.1153e-41 4.9239e-41 7.0167e-41
000360 82 ad 01 80 86 53 04 80 4d fc 05 00 c2 39 05 80
       -1.54078e-40 -3.97305e-40 5.49686e-40 -4.79897e-40
000370 e4 40 04 00 5c 70 06 80 e6 64 06 00 9e 11 00 80
       3.9062e-40 -5.9132e-40 5.87209e-40 -6.32e-42
000380 e7 df 00 80 89 cd 03 00 88 b6 01 80 e6 04 04 80
       -8.0321e-41 3.49239e-40 -1.57315e-40 -3.69099e-40
000390 68 6b 03 80 6e 06 05 00 a1 43 03 00 4d 00 03 80
       -3.14037e-40 4.61484e-40 2.99767e-40 -2.75614e-40
0003a0 78 90 06 80 c6 5c 00 80 71 6e 02 80 83 4c 00 80
       -6.02839e-40 -3.3281e-41 -2.2329e-40 -2.7447e-41
0003b0 c5 55 03 80 09 92 03 80 db 34 03 00 32 01 02 00
       -3.06275e-40 -3.27894e-40 2.94467e-40 1.841e-40
0003c0 f8 99 01 80 65 c4 02 80 38 0c 02 00 14 88 03 80
       -1.47069e-40 -2.54124e-40 1.88054e-40 -3.24322e-40
0003d0 6e 65 00 00 04 74 01 80 23 60 03 00 e2 de 00 00
       3.6386e-41 -1.33454e-40 3.09994e-40 7.9955e-41
0003e0 02 02 00 80 4c f6 05 80 02 8e 03 80 4e 8a 00 80
       -7.2e-43 -5.47532e-40 -3.26449e-40 -4.9614e-41
0003f0 58 40 00 80 f2 60 03 80 41 43 01 80 b2 37 01 00
       -2.3082e-41 -3.10284e-40 -1.15962e-40 1.11815e-40

bias f4 [64]
000000 d2 6e 01 80 4a 89 06 00 19 32 01 80 f1 c3 01 80
       -1.3159e-40 6.00263e-40 -1.09807e-40 -1.62126e-40
000010 25 6a 05 80 6b 51 01 00 91 f0 00 80 fd c8 01 80
       -4.97255e-40 1.21043e-40 -8.6299e-41 -1.63937e-40
000020 49 70 02 00 38 4e 06 80 43 1c 04 80 10 21 01 80
       2.23951e-40 -5.79073e-40 -3.7748e-40 -1.03696e-40
000030 65 a8 01 00 cf 59 02 80 03 35 01 80 b2 72 00 00
       1.52244e-40 -2.15888e-40 -1.10853e-40 4.1145e-41
000040 d8 bc 02 00 12 5e 01 80 24 7d 02 80 63 0a 03 00
       2.51415e-40 -1.25582e-40 -2.28563e-40 2.79233e-40
000050 91 05 06 80 d0 f3 05 80 ce 87 02 00 3f 63 03 00
       -5.5301e-40 -5.46641e-40 2.32389e-40 3.11109e-40
000060 fa 12 03 00 8e 32 03 00 a0 84 01 00 ed 5a 06 00
       2.82314e-40 2.93642e-40 1.39412e-40 5.83631e-40
000070 41 2e 01 00 e2 9d 00 00 75 80 01 00 55 73 03 00
       1.08428e-40 5.6638e-41 1.37917e-40 3.1688e-40
000080 59 db 05 00 39 75 03 00 67 82 01 00 c0 83 04 00
       5.37865e-40 3.17558e-40 1.38615e-40 4.14605e-40
000090 41 51 03 80 f8 db 00 00 81 02 03 00 cd ff 03 00
       -3.04655e-40 7.891e-41 2.76405e-40 3.6727e-40
0000a0 5e 76 06 80 2d 22 01 80 29 91 03 00 36 fe 02 00
       -5.93475e-40 -1.04095e-40 3.2758e-40 2.74865e-40
0000b0 c0 5d 06 80 5c 68 04 80 06 2f 05 80 5c 63 02 80
       -5.84644e-40 -4.04779e-40 -4.76046e-40 -2.19314e-40
0000c0 ea 41 04 00 d3 54 02 00 09 ce 00 80 76 d7 00 00
       3.90987e-40 2.141e-40 -7.3911e-41 7.7293e-41
0000d0 f3 ef 00 00 29 99 04 00 15 6e 02 00 45 42 03 00
       8.6078e-41 4.22285e-40 2.23161e-40 2.9928e-40
0000e0 13 41 04 80 3c 96 03 80 81 78 03 80 87 c4 05 00
       -3.90686e-40 -3.294e-40 -3.18735e-40 5.29678e-40
0000f0 84 2a 04 00 aa 8a 04 00 51 00 01 80 ae e3 00 80
       3.82594e-40 4.17085e-40 -9.1949e-41 -8.1676e-41

weight f4 [32, 64]
000000 f3 11 01 80 15 3b 03 80 6f 53 00 80 32 75 01 00
       -9.8274e-41 -2.96701e-40 -2.993e-41 1.33877e-40
000010 c3 e4 00 00 09 42 01 00 32 ed 00 80 57 1d 03 00
       8.2064e-41 1.15524e-40 -8.509e-41 2.86032e-40
000020 fc e4 05 80 2c 1d 03 80 0a ba 02 00 73 f1 01 00
       -5.41322e-40 -2.85971e-40 2.50409e-40 1.78451e-40
000030 99 56 05 80 fb b6 02 00 a0 33 03 00 87 b9 01 80
       -4.90243e-40 2.49312e-40 2.94026e-40 -1.5839e-40
000040 da 46 01 80 68 b3 02 00 98 87 05 00 15 6a 05 00
       -1.17252e-40 2.4803e-40 5.0782e-40 4.97233e-40
000050 92 b4 02 80 a4 14 01 80 0b 94 02 80 d9 c6 02 00
       -2.48447e-40 -9.924e-41 -2.36779e-40 2.55004e-40
000060 05 79 01 80 68 60 03 80 d5 ee 00 80 2f 09 02 80
       -1.35249e-40 -3.1009e-40 -8.5677e-41 -1.86965e-40
000070 44 e8 00 00 ad 8f 02 80 29 75 04 00 94 1e 03 80
       8.3321e-41 -2.35212e-40 4.09371e-40 -2.86476e-40
000080 71 ce 02 80 9c 23 06 80 f3 8d 01 80 e5 51 03 80
       -2.57728e-40 -5.63787e-40 -1.42757e-40 -3.04885e-40
000090 84 76 04 80 6c 83 05 00 f4 8d 01 80 31 27 01 00
       -4.09857e-40 5.06323e-40 -1.42759e-40 1.05895e-40
0000a0 3f a7 00 00 0c 9f 00 80 6d 17 03 80 c6 c2 00 80
       5.9997e-41 -5.7055e-41 -2.8391e-40 -6.9872e-41
0000b0 1b 6a 03 00 18 19 03 80 67 54 06 80 86 d7 05 80
       3.1357e-40 -2.84508e-40 -5.81291e-40 -5.36493e-40
0000c0 bd 22 00 80 bd 34 00 00 a4 79 01 00 0b 1f 03 80
       -1.2462e-41 1.8919e-41 1.35472e-40 -2.86643e-40
0000d0 60 ac 04 00 29 96 03 00 57 7c 03 00 50 b5 06 80
       4.29178e-40 3.29374e-40 3.20111e-40 -6.16056e-40
0000e0 71 6c 01 80 33 c1 01 00 6d 6a 01 80 0c ad 04 80
       -1.30737e-40 1.61142e-40 -1.30014e-40 -4.2942e-40
0000f0 8f a5 03 00 3a 86 02 80 02 af 03 80 58 3c 00 00
       3.34898e-40 -2.31822e-40 -3.38287e-40 2.1647e-41
000100 32 8c 02 00 9e 38 00 80 9b 5a 03 80 ea 23 02 00
       2.33964e-40 -2.031e-41 -3.0801e-40 1.96555e-40
000110 a9 8a 04 00 f4 9a 01 80 39 b3 03 00 bf 54 00 00
       4.17084e-40 -1.47422e-40 3.398e-40 3.0401e-41
000120 4e b8 03 00 1e f8 01 00 0e 73 02 00 93 0d 03 80
       3.41623e-40 1.80843e-40 2.24945e-40 -2.80376e-40
000130 4e 52 01 80 ec dd 05 80 c0 f1 01 80 98 8c 04 00
       -1.21361e-40 -5.38788e-40 -1.78559e-40 4.17778e-40
000140 2e 03 02 80 0f 9a 03 00 da 2c 03 00 32 63 04 80
       -1.84812e-40 3.30772e-40 2.91596e-40 -4.02927e-40
000150 2e f5 02 80 01 70 00 80 09 d0 00 00 71 90 06 00
       -2.71625e-40 -4.018e-41 7.4629e-41 6.02829e-40
000160 24 4d 00 80 7a 45 03 00 ce 25 02 80 35 a8 03 80
       -2.7673e-41 3.0043e-40 -1.97233e-40 -3.35848e-40
000170 20 48 01 80 51 fd 00 00 0a dd 04 80 c7 8b 06 80
       -1.17709e-40 9.0873e-41 -4.46636e-40 -6.01156e-40
000180 e1 69 04 80 c4 1f 06 00 e1 9d 05 00 10 e5 04 80
       -4.05324e-40 5.62408e-40 5.15814e-40 -4.49514e-40
000190 ec a1 06 80 71 ed 00 80 73 fc 02 80 30 70 00 80
       -6.091e-40 -8.5178e-41 -2.74233e-40 -4.0245e-41
0001a0 71 8d 00 00 92 50 00 00 8b 91 03 00 20 e0 05 00
       5.074e-41 2.8903e-41 3.27717e-40 5.39578e-40
0001b0 83 e5 02 00 ef a9 06 00 55 90 00 80 71 81 03 80
       2.66004e-40 6.11974e-40 -5.1777e-41 -3.21941e-40
0001c0 f5 b6 02 00 dd ca 02 00 f7 ea 04 00 11 1f 06 00
       2.49304e-40 2.56445e-40 4.51631e-40 5.62158e-40
0001d0 79 4c 01 80 ad b7 00 00 f5 8b 04 80 0d 56 04 80
       -1.19269e-40 6.589e-41 -4.17549e-40 -3.98211e-40
0001e0 8d 8b 02 80 5d 77 01 00 1a 89 06 00 d7 c5 02 00
       -2.33732e-40 1.34655e-40 6.00196e-40 2.54643e-40
0001f0 ba 1e 05 00 a5 e2 00 80 a4 37 03 00 e2 87 01 00
       4.702e-40 -8.1305e-41 2.95467e-40 1.40581e-40
000200 ae 01 00 00 09 31 00 00 16 c5 00 80 84 db 00 00
       6.03e-43 1.759e-41 -7.0701e-41 7.8747e-41
000210 40 4e 01 80 6d cc 05 80 6e 34 01 80 d5 e9 00 80
       -1.19906e-40 -5.32512e-40 -1.10644e-40 -8.3883e-41
000220 5f c8 05 80 57 8e 02 80 d7 18 04 00 2c b5 01 80
       -5.31057e-40 -2.34733e-40 3.76253e-40 -1.56828e-40
000230 fe 5e 03 80 ef d4 02 80 f5 cb 01 00 ca 2a 02 80
       -3.09583e-40 -2.60057e-40 1.65001e-40 -1.99021e-40
000240 fc 29 04 00 69 b1 02 80 10 4c 04 80 2f 95 00 00
       3.82403e-40 -2.47314e-40 -3.94628e-40 5.3517e-41
000250 32 43 00 00 6b 05 03 00 58 47 01 80 36 8d 03 80
       2.4105e-41 2.7745e-40 -1.17429e-40 -3.26163e-40
000260 ff ef 04 00 1f f3 00 80 f0 7f 00 00 f3 1c 04 80
       4.53436e-40 -8.7215e-41 4.5895e-41 -3.77727e-40
000270 90 16 02 80 81 64 00 80 a5 02 02 00 63 f1 01 80
       -1.91765e-40 -3.6054e-41 1.8462e-40 -1.78429e-40
000280 4f b2 02 00 92 7d 03 80 67 26 03 80 db 71 01 80
       2.47636e-40 -3.20553e-40 -2.89283e-40 -1.32679e-40
000290 0c 15 02 00 78 c1 00 00 19 8e 03 80 7d ea 00 00
       1.91221e-40 6.9404e-41 -3.26482e-40 8.4119e-41
0002a0 4b 02 03 80 38 b0 01 00 8c 5f 01 80 93 99 00 00
       -2.76329e-40 1.55051e-40 -1.26111e-40 5.5092e-41
0002b0 0f 99 02 80 23 96 03 80 ea b3 01 00 1a 54 02 80
       -2.38578e-40 -3.29365e-40 1.56377e-40 -2.13841e-40
0002c0 a8 76 00 00 3d 83 06 00 7b e5 01 80 10 c1 04 80
       4.2566e-41 5.98092e-40 -1.74158e-40 -4.366e-40
0002d0 63 c7 04 00 24 b8 04 00 2c 4a 00 00 69 33 02 00
       4.38868e-40 4.33399e-40 2.6608e-41 2.02113e-40
0002e0 30 2b 01 80 0c 21 03 80 e4 a3 05 00 47 ff 05 80
       -1.07328e-40 -2.87361e-40 5.1797e-40 -5.50754e-40
0002f0 3a 51 01 00 9f eb 00 00 a6 d4 00 80 f6 c9 01 80
       1.20974e-40 8.4525e-41 -7.6284e-41 -1.64285e-40
000300 08 45 02 00 8c 1c 03 00 bf 5b 06 80 93 05 03 80
       2.08435e-40 2.85747e-40 -5.83925e-40 -2.77506e-40
000310 ce 9b 01 00 58 94 06 80 ed 34 03 00 eb 3c 03 80
       1.47728e-40 -6.04229e-40 2.94493e-40 -2.9736e-40
000320 74 40 00 80 52 5b 03 80 4c 09 01 80 51 64 03 00
       -2.3121e-41 -3.08266e-40 -9.517e-41 3.11493e-40
000330 7a dd 00 00 71 00 02 00 c6 0e 03 00 f4 44 02 80
       7.9451e-41 1.8383e-40 2.80806e-40 -2.08407e-40
000340 29 e0 05 80 26 cd 02 80 98 53 03 80 da 33 03 00
       -5.39591e-40 -2.57264e-40 -3.05494e-40 2.94107e-40
000350 08 cd 01 00 6b 39 00 80 78 e3 04 80 98 4b 01 80
       1.65387e-40 -2.0598e-41 -4.48942e-40 -1.18953e-40
000360 63 a6 02 80 64 b6 04 00 82 3d 06 00 c6 76 00 80
       -2.4336e-40 4.32771e-40 5.73078e-40 -4.2608e-41
000370 19 c1 00 80 2b 88 04 00 8d 3f 01 80 0f ab 00 00
       -6.927e-41 4.1619e-40 -1.14633e-40 6.1364e-41
000380 18 21 02 80 3d 2e 02 80 7d 08 00 00 d0 37 04 00
       -1.95543e-40 -2.00258e-40 3.045e-42 3.87364e-40
000390 65 fb 02 80 53 ca 01 80 88 56 03 00 bf 4c 00 80
       -2.73854e-40 -1.64416e-40 3.06548e-40 -2.7531e-41
0003a0 93 da 01 80 bf 6e 00 00 ce 20 02 80 78 df 02 80
       -1.70245e-40 3.9728e-41 -1.95439e-40 -2.63836e-40
0003b0 31 fa 00 00 ca b6 00 00 dc 81 00 00 d4 bb 00 00
       8.9752e-41 6.5572e-41 4.6585e-41 6.738e-41
0003c0 4e 8d 01 80 6a 0f 02 00 67 2c 00 00 10 fd 04 80
       -1.42526e-40 1.892e-40 1.5929e-41 -4.58124e-40
0003d0 1c 85 02 80 ff cf 02 80 aa fa 01 80 4b 3b 01 80
       -2.31422e-40 -2.58286e-40 -1.81757e-40 -1.13106e-40
0003e0 c6 4a 01 80 11 60 04 80 a7 03 02 80 80 50 00 80
       -1.18659e-40 -4.01804e-40 -1.84981e-40 -2.8878e-41
0003f0 a8 cc 02 80 d1 07 03 80 24 56 06 00 6c c4 00 80
       -2.57088e-40 -2.7831e-40 5.81914e-40 -7.0463e-41

bias f4 [32]
000000 72 a4 01 00 55 43 00 00 9f 29 04 80 47 53 03 00
       1.50827e-40 2.4154e-41 -3.82273e-40 3.05381e-40
000010 50 ca 02 00 9f a4 00 80 d9 d0 05 80 4b fd 02 80
       2.56247e-40 -5.9055e-41 -5.34098e-40 -2.74535e-40
000020 9a 06 03 80 d3 29 01 00 09 07 00 00 70 58 03 00
       -2.77875e-40 1.06839e-40 2.524e-42 3.07232e-40
000030 cb 8b 00 00 a8 b2 05 00 96 fe 01 80 54 e9 02 80
       5.0148e-41 5.23267e-40 -1.83164e-40 -2.67373e-40
000040 84 c2 01 80 eb b3 04 80 1d ab 00 00 0f 99 02 00
       -1.61615e-40 -4.31884e-40 6.1384e-41 2.38578e-40
000050 9c a8 01 00 fc 11 02 80 ce 99 05 00 ee 4f 03 00
       1.52321e-40 -1.90123e-40 5.14352e-40 3.0418e-40
000060 50 59 01 00 65 63 05 00 66 0f 03 00 ce 28 01 00
       1.23875e-40 4.94834e-40 2.8103e-40 1.06473e-40
000070 35 4e 03 00 16 2b 03 80 0c 3b 00 80 7e ac 02 00
       3.03562e-40 -2.90963e-40 -2.1182e-41 2.4555e-40

weight f4 [64, 160]
000000 71 50 08 bd 62 7c 9f bc 49 e8 a8 bd af 4f dc bd
       -0.03327984 -0.01946849 -0.0824743 -0.10757386
000010 05 5b ef bd f2 0d e7 3c 94 d9 9f bc ba 72 ff 3c
       -0.116872825 0.028204892 -0.019512929 0.031182636
000020 17 35 16 bd 77 0a f6 3d 2f e1 b5 bb 07 2e 67 be
       -0.036671724 0.12013715 -0.0055505256 -0.22576152
000030 bc 30 00 bf ec 3a 9d bc 51 c0 6c 3c f7 c9 ac 3e
       -0.5007436 -0.019193135 0.014450149 0.33747837
000040 aa 67 01 3b f0 a9 3c 3c 82 ba ed bb cf 7b 0e bd
       0.0019745626 0.011515126 -0.0072548995 -0.03478604
000050 9d 68 17 be 26 d3 05 3c 90 8c 07 be ed a4 17 3e
       -0.14786 0.0081680175 -0.13237214 0.14809008
000060 0b 3d 77 3c 22 91 00 bf 6a f5 47 be a4 1f 17 be
       0.015090237 -0.50221455 -0.19527212 -0.14758164
000070 70 17 ae bd b9 54 01 3d 0f 00 b9 bc fe 7e 9f bc
       -0.08500564 0.03157494 -0.022583036 -0.019469734
000080 0a 09 00 3d 24 6a 33 bd a5 4c 5d be 98 01 94 bd
       0.03125862 -0.043802395 -0.21611269 -0.072268665
000090 6a b8 90 bd 64 4d 49 3c 63 04 4f 3d 6a 35 61 bd
       -0.07066424 0.012286518 0.050541293 -0.05498258
0000a0 9f 10 3f bd 76 e6 bb 3d 60 d3 24 3c 45 54 90 bd
       -0.04664671 0.09174816 0.010060161 -0.07047323
0000b0 f1 78 c8 be 09 ec f6 3d 78 0f df 3c fa 7c 50 bb
       -0.3915477 0.12056739 0.027229056 -0.0031812773
0000c0 3e 83 98 bc 19 2c a4 bb d0 76 98 3c 90 50 0e 3d
       -0.018617269 -0.0050101397 0.018611342 0.0347448
0000d0 62 32 bd bd f6 d3 66 bc 76 f1 ee 3c ff 6e fe bc
       -0.092381254 -0.014088621 0.029167872 -0.031058786
0000e0 99 d6 ae 3b 75 37 0c bf fa fb 3b be 8f c3 1e bd
       0.0053356406 -0.5477212 -0.1835784 -0.038760718
0000f0 0f 3b 01 bd 39 72 a6 3c 42 a8 19 3e d2 4c b5 bc
       -0.031550463 0.020318137 0.15005592 -0.022131357
000100 c2 84 95 bc 73 0b 62 3d 64 79 31 be 11 69 82 3d
       -0.01825178 0.0551867 -0.17331463 0.06367696
000110 a7 7c 98 bc 4e 4c e3 bc 01 c1 bd 3c 8f 27 e6 bd
       -0.018614126 -0.027746346 0.02316332 -0.11238014
000120 4d fd f4 bd 16 35 20 3d dd 28 1c 3d d8 dd 93 be
       -0.11962376 0.039113127 0.038124908 -0.2888019
000130 45 2c ba be 16 d2 03 bd 59 0f 66 bd fe b9 88 be
       -0.363619 -0.032182775 -0.05616698 -0.267044
000140 13 63 e2 3c 2c b5 b6 bb 49 51 a2 ba 4e a8 7f 3c
       0.027635133 -0.0055757966 -0.0012383844 0.015604092
000150 7f 6e 47 bd 63 31 be bc e8 ee 14 3d 1a 73 7d be
       -0.04868936 -0.023216909 0.03636065 -0.24750939
000160 26 42 81 bc e5 c7 1d bf e8 16 0a bd 5e 78 e5 bd
       -0.015778612 -0.6163314 -0.03371325 -0.11204599
000170 a9 43 95 bd 9c 6f 99 ba 13 bd bd 3d 47 06 3d bc
       -0.07288296 -0.0011706236 0.09264579 -0.011537141
000180 26 9a 83 3d c0 90 31 3c e1 e3 0e be 9d d2 b0 bc
       0.06425886 0.010837734 -0.13954116 -0.021584803
000190 06 66 11 be 94 e1 9c bc d6 6b f7 bc 9e da af bd
       -0.14199075 -0.019150533 -0.030202787 -0.0858662
0001a0 c2 7d 60 bd 96 2d dd 3d 31 29 c8 bc 98 ce b4 bd
       -0.054807432 0.107997105 -0.024433704 -0.08828467
0001b0 e2 16 e4 be 4b d9 16 3d f7 47 00 bd db 16 0f 3e
       -0.44548708 0.03682832 -0.03131863 0.13973562
0001c0 f2 56 72 3c b5 03 2d 3d c0 ca f3 3c 7c b2 8f 3b
       0.014791237 0.042239863 0.029759765 0.0043852907
0001d0 14 09 15 be ab bb 89 3c ab c5 84 3d 65 d3 97 3e
       -0.14554244 0.01681312 0.06483015 0.2965347
0001e0 8f 0e 5a 3c e4 d1 b3 be 68 58 be bd 2e 0b 52 be
       0.013309135 -0.3512107 -0.09294206 -0.20512077
0001f0 d7 ed a2 bd 80 18 96 3a f2 1c ef 3d 75 c2 d6 3c
       -0.079555206 0.0011451393 0.11675443 0.026215771
000200 23 f5 28 bb aa 0d 8d bc bf d3 6a bd 8c 1a 86 3c
       -0.0025780878 -0.01721843 -0.057330843 0.01637008
000210 ac 86 da bc 28 63 a4 3b c0 c8 cf bb 79 fc 8f bd
       -0.026675545 0.005016703 -0.00634107 -0.07030577
000220 71 dd 0d bd 62 80 db 3c b1 f1 b7 bb 90 86 85 3c
       -0.03463501 0.026794616 -0.0056135287 0.016299516
000230 36 86 9a bd c1 5c cc bb 62 55 1c bd 63 42 3a 3e
       -0.0754513 -0.006236643 -0.038167365 0.18189387
000240 63 e7 cd 3b c2 b8 05 bb 90 3b 69 3c ad 7e 89 ba
       0.006283687 -0.0020404314 0.014235392 -0.0010490023
000250 28 54 69 bd 76 43 df ba 78 89 04 bc e3 68 55 3e
       -0.056965023 -0.0017033655 -0.008089416 0.20840792
000260 e1 01 14 bc 72 b6 94 3d dc 1a 2c 3d c1 ba 2a be
       -0.009033651 0.07261361 0.042017803 -0.16672803
000270 c6 4f 53 bd aa 7d 4d 3c 33 f7 3d bc a3 44 3b bc
       -0.05158975 0.012542168 -0.011594581 -0.0114299385
000280 ad ac 83 b6 3f 50 20 2b c1 89 33 a9 b9 9a ac 95
       -3.9242063e-06 5.695478e-13 -3.9865467e-14 -6.9714356e-26
000290 64 a4 97 a2 44 e0 69 13 d8 ac 32 93 56 26 fe 32
       -4.1102687e-18 2.9519306e-27 -2.2551977e-27 2.9586925e-08
0002a0 7f bb be b4 71 ee 9b 9e 6d 85 22 91 68 ac bd b4
       -3.552668e-07 -1.650988e-20 -1.2820662e-28 -3.5329435e-07
0002b0 03 be 1f 35 19 4f 96 97 e8 65 36 b0 99 16 b6 b5
       5.950862e-07 -9.71349e-25 -6.635603e-10 -1.3566633e-06
0002c0 0f 53 5a 93 32 9d d7 12 b6 3b 28 13 ab ae b1 13
       -2.755642e-27 1.3607159e-27 2.123402e-27 4.4853318e-27
0002d0 2c 41 62 a9 48 62 9f 93 02 da a7 92 4e bb 05 37
       -5.0238608e-14 -4.0234156e-27 -1.0592925e-27 7.971028e-06
0002e0 4a 96 b4 12 82 d2 a8 b5 ef 64 df 37 40 a9 22 38
       1.1396646e-27 -1.2578241e-06 2.6630672e-05 3.8781436e-05
0002f0 22 43 d5 a3 0f e7 63 11 97 25 c7 30 6a c1 b1 11
       -2.3121938e-17 1.7978343e-28 1.4489839e-09 2.8044877e-28
000300 61 7b 23 b6 87 34 23 22 c2 67 f1 32 15 d9 a7 92
       -2.4360709e-06 2.2118427e-18 2.8103276e-08 -1.0592697e-27
000310 a7 33 4b 9f 7f 53 df 12 2a 32 0c 94 55 f4 9a b7
       -4.3029648e-20 1.4093862e-27 -7.078087e-27 -1.8472007e-05
000320 c0 97 76 30 84 92 ab 17 0b a4 89 93 25 37 03 35
       8.970993e-10 1.1087602e-24 -3.474542e-27 4.888155e-07
000330 dd b6 9f 38 ac 9e 38 aa 06 13 1d b1 bd 18 3f b8
       7.615772e-05 -1.6397533e-13 -2.285732e-09 -4.5560988e-05
000340 79 fe 4b 12 0e c0 f8 11 65 3d 10 13 3c b9 98 93
       6.4369167e-28 3.9245864e-28 1.8205625e-27 -3.855285e-27
000350 4a 9f a4 34 a2 6c 05 13 35 78 70 17 cd f5 67 b6
       3.0663278e-07 1.684052e-27 7.7699905e-25 -3.4564757e-06
000360 7c e6 b1 91 53 19 30 b9 ac 41 5d ad c8 1d ca 35
       -2.8067723e-28 -0.00016794102 -1.2576978e-11 1.505884e-06
000370 ff bb 80 aa 7d 35 62 93 e3 ee 27 b8 b6 48 ff 91
       -2.2867816e-13 -2.8551582e-27 -4.0038383e-05 -4.0276718e-28
000380 9d d6 1e b4 6d e5 e6 19 f3 dc 13 2f 41 73 d8 93
       -1.4792973e-07 2.3874107e-23 1.3448069e-10 -5.4639715e-27
000390 41 69 17 b0 58 a0 b0 12 63 d6 b5 92 35 33 18 b4
       -5.5083055e-10 1.1146689e-27 -1.1475556e-27 -1.4174732e-07
0003a0 23 63 0c b5 ea c6 98 ac f4 fc 00 13 41 42 8d b6
       -5.2298327e-07 -4.3421837e-12 1.6280587e-27 -4.2098404e-06
0003b0 60 e2 03 36 be 22 39 a3 9d 1d 5a b3 7b 2d 52 b8
       1.9652289e-06 -1.0036227e-17 -5.0784013e-08 -5.011026e-05
0003c0 77 b7 f5 92 70 47 6f 12 24 da 5a 13 56 e1 c1 12
       -1.5506901e-27 7.5503156e-28 2.762302e-27 1.2235562e-27
0003d0 c5 28 9d 37 2c a2 d8 12 1e ba fb af 54 41 7b b9
       1.8734843e-05 1.3671495e-27 -4.5788878e-10 -0.00023961562
0003e0 5b 58 e7 92 8d 06 88 b7 70 d7 60 2d 5c 60 31 36
       -1.4599931e-27 -1.6215514e-05 1.27807626e-11 2.6431144e-06
0003f0 c6 5a a9 2b e7 b7 06 92 f6 64 02 b8 f0 66 e4 91
       1.2033367e-12 -4.250962e-28 -3.1088442e-05 -3.6035497e-28

bias f4 [64]
000000 12 ec bb 3d 28 48 b0 bb 5f 43 2b 3e 6f 88 03 8f
       0.09175886 -0.0053796954 0.16724919 -6.485075e-30
000010 40 f3 33 bc e2 cb 6c 3d 7f 52 24 3e 2f 33 5a 3e
       -0.010983288 0.057811625 0.16047095 0.21308587
000020 11 2b 89 3d b3 24 e3 3d 39 44 2a 3e e8 96 4a 3d
       0.066976674 0.11090984 0.16627587 0.04946032
000030 9b d1 73 3e 8e 13 5a bd 95 e9 35 3e a8 56 54 3e
       0.23810427 -0.053241305 0.17764886 0.20736182
000040 bb a8 18 3d f8 2f 16 b1 d7 5d 8c ba b5 cc 97 a7
       0.03727029 -2.185514e-09 -0.0010709119 -4.2132863e-15
000050 41 61 02 3e c5 68 86 ba c1 22 3d be 7f 38 1c bd
       0.12732412 -0.0010254612 -0.18470289 -0.038139816
000060 d1 61 a8 3d da 4b b8 3e 18 e5 00 3e 37 85 1d b7
       0.08221782 0.3599537 0.12587392 -9.388946e-06
000070 eb e1 b2 3e 9f e0 e0 bd 93 38 1c 3d e6 a0 40 be
       0.34937987 -0.10980343 0.03813989 -0.18811378
000080 17 2c 02 be 63 23 0d ba 22 5c e9 ba 80 ab cd 3e
       -0.12712131 -0.0005383996 -0.0017803947 0.40169907
000090 95 8b 2e 3d 2c f0 32 be a1 07 a8 bc e4 05 e8 3d
       0.042613585 -0.17474431 -0.02051145 0.113292485
0000a0 86 f9 d5 bc 36 4a 53 bd 13 0a 49 b1 5f da 8e 3e
       -0.026119959 -0.051584445 -2.9255076e-09 0.2790098
0000b0 8d 2e 0e bc d2 8b 92 3e c5 ee 81 bb 04 e5 07 bd
       -0.008678091 0.286223 -0.003965231 -0.03317739
0000c0 22 79 06 3d 94 ce 34 3e 0c b5 4e 3e b9 d8 8c 3e
       0.032830365 0.17656928 0.20186251 0.27509096
0000d0 dc 9a 35 3e 5a e6 50 bd 86 32 c5 3e 38 f7 77 3e
       0.17734855 -0.05100093 0.3851511 0.242154
0000e0 7b 70 38 bc f7 f9 5d b7 39 8d a7 bc fe e4 92 3e
       -0.011257286 -1.3230826e-05 -0.020453082 0.28690332
0000f0 76 8b 04 3e 44 9b 30 b3 a7 82 ed 3d 75 75 ad 3e
       0.12943825 -4.1119407e-08 0.115971856 0.33878675

weight f4 [32, 64]
000000 61 1c c9 b8 2b 3a 00 00 68 ab 7d ba 2b f9 00 00
       -9.589713e-05 2.0867e-41 -0.00096767256 8.9385e-41
000010 2c e7 05 a3 82 76 7e b7 5a be 47 ba 33 c2 5d ba
       -7.258897e-18 -1.5167172e-05 -0.0007619612 -0.0008459419
000020 06 3c b8 32 dc ee 14 22 60 b6 9e a2 87 11 47 b2
       2.1447715e-08 2.0184191e-18 -4.3019083e-18 -1.158731e-08
000030 75 07 58 b7 e8 60 28 b8 59 c5 3c b7 ac d3 89 ba
       -1.28763395e-05 -4.0144572e-05 -1.1251622e-05 -0.0010515354
000040 2e 9c 4a b6 65 bd 02 80 26 b4 a0 9c 07 1c 05 00
       -3.0191254e-06 -2.51613e-40 -1.0634479e-21 4.69232e-40
000050 2f c6 85 b2 17 ed b9 1a b3 74 d5 b8 64 49 67 b6
       -1.5573361e-08 7.6897246e-23 -0.000101783684 -3.4464401e-06
000060 90 e6 97 a0 f1 ec 4a b9 84 2c 10 b2 8b 2e 06 00
       -2.5732968e-19 -0.00019352489 -8.392025e-09 5.6771e-40
000070 ea f6 53 b9 7b 94 bb ba 0f d8 8f b7 de c8 b6 28
       -0.00020214511 -0.0014311218 -1.7147539e-05 2.0293171e-14
000080 72 f2 41 bb 1e bd 05 00 26 3d 68 1d 5d c0 7b b8
       -0.0029593972 5.2702e-40 3.0736557e-21 -6.0022216e-05
000090 26 1e a1 b2 df 80 60 b8 84 8d a2 a0 69 88 28 b8
       -1.8756577e-08 -5.3525782e-05 -2.7537515e-19 -4.0181363e-05
0000a0 78 e0 79 a2 ee 5d f7 b6 58 e4 05 00 74 69 45 b5
       -3.3864625e-18 -7.3721085e-06 5.41092e-40 -7.3541673e-07
0000b0 7b d2 0f bb 0b 75 63 b9 8d b4 dc 98 3a b7 f2 b9
       -0.0021945524 -0.00021692009 -5.7050977e-24 -0.0004629435
0000c0 11 f5 a2 af 9f 5a cd b9 6d 77 ff b9 93 bb 22 bb
       -2.9641758e-10 -0.00039168165 -0.0004872637 -0.0024831041
0000d0 c8 45 c5 b2 c1 03 04 00 46 9e 13 b8 63 0a 4e b3
       -2.2965551e-08 3.68689e-40 -3.5194935e-05 -4.797256e-08
0000e0 06 c8 fd 35 6a 03 00 80 55 27 db b5 e7 1f 0e b6
       1.8908183e-06 -1.225e-42 -1.6328219e-06 -2.1178219e-06
0000f0 a9 4c 5d a0 ee a2 5d 97 b0 6a 99 b6 fe 3d be 22
       -1.8744793e-19 -7.1614597e-25 -4.5721754e-06 5.156524e-18
000100 95 12 ed 3d 53 da ad b8 4c 9c fa bc 1e 3d 00 80
       0.1157581 -8.289949e-05 -0.030592106 -2.1925e-41
000110 d5 d4 7f bb f8 7b a2 3d d1 39 cb bd 97 a2 0d be
       -0.003903677 0.079338014 -0.09923137 -0.13831554
000120 45 b8 96 be 42 60 9f be 15 14 e7 bc 39 ec 0e be
       -0.29437461 -0.31128126 -0.028207818 -0.139573
000130 1a bc 2d be 7d 0a 65 be f5 05 e5 bc 93 71 a5 bd
       -0.16966286 -0.22367282 -0.027956942 -0.08078303
000140 68 4c d9 3d c0 1e 00 00 4e bb 86 b8 8e b4 00 00
       0.106102765 1.1031e-41 -6.424506e-05 6.4771e-41
000150 44 e0 f7 3d 86 a2 59 b8 0e 27 b1 bd 43 02 98 be
       0.12103322 -5.1888193e-05 -0.08650027 -0.29689226
000160 52 04 f2 bd 75 5a d8 3d c8 02 32 3c 0d e7 b4 b1
       -0.1181723 0.10564128 0.010864921 -5.264957e-09
000170 cb 1d bf 3e f4 27 94 be 7f 6f 80 3d 51 4f fd bc
       0.37327418 -0.28936732 0.06271266 -0.03092161
000180 b5 90 8a 3e 27 37 b0 39 23 f6 ff 36 fc 2b d3 bb
       0.27063528 0.00033610428 7.6282463e-06 -0.0064444523
000190 fc 46 0c 3e b4 80 96 be 6a 8a 2e 3b 2a ca f3 3d
       0.13698953 -0.29395068 0.0026632794 0.11903794
0001a0 44 d9 5d 3c 8f d2 9f be 58 d2 b8 9d bc 2d f5 3e
       0.01354057 -0.3121533 -4.8921885e-21 0.47886455
0001b0 fc 9e d0 3e 38 78 17 3e b8 89 3d 38 94 ad 73 3e
       0.40746295 0.14791954 4.5189372e-05 0.23796684
0001c0 b1 13 3e 3d 29 c0 fe bd a2 95 f2 3d b1 1c 0c bd
       0.046405498 -0.124389954 0.118449464 -0.03420705
0001d0 df 32 a2 3d a4 60 59 bd 78 ca 92 3e 08 d7 9c bd
       0.07919859 -0.05307068 0.28670096 -0.076582015
0001e0 24 c2 7b be d4 72 fb b0 c2 e3 33 3e 39 62 69 3e
       -0.24585778 -1.829529e-09 0.17567351 0.22791375
0001f0 02 28 0e be 25 70 44 27 ea 10 03 3f 8f 99 46 be
       -0.1388245 2.7261258e-15 0.51197684 -0.19394515
000200 ca 8f eb 3d e5 5b 1b 3c 0b f2 df 3f 45 63 00 80
       0.11502035 0.009482359 1.7495741 -3.5611e-41
000210 22 98 c0 bc 4a e6 99 3d 5c b4 19 3e 10 b1 57 bd
       -0.023510043 0.07514627 0.15010208 -0.052659094
000220 b3 17 81 be df 58 4a be 7f 6b 6f 3c 94 7f 03 3e
       -0.25213394 -0.19760464 0.014613031 0.12841636
000230 07 b4 e8 bc 71 6e 93 3d 1f 13 d9 3e 5f ca 8c be
       -0.028406156 0.071987994 0.423974 -0.27498147
000240 39 36 5e 3e f3 18 bf a2 3f d0 84 b9 e3 ae 0f 27
       0.21700372 -5.179707e-18 -0.00025332157 1.9940043e-15
000250 15 63 e3 3d ea 0b 02 3a 7c 61 45 3d 8e ca 33 be
       0.11102883 0.0004960882 0.04818867 -0.17557737
000260 aa f6 8d bb 6b 1d f5 bd bc f5 74 bd 90 bf 25 b3
       -0.004332383 -0.11968502 -0.059804663 -3.859128e-08
000270 5d 73 85 3e f4 7c d9 3d 83 e7 49 3e 46 68 51 3e
       0.26064578 0.10619536 0.19717221 0.20449933
000280 f1 4a d6 3d a6 a8 6c b8 9b f8 8c 3a 27 49 09 be
       0.10463513 -5.642385e-05 0.0010755243 -0.13406812
000290 6a f2 44 bd f2 48 c6 3b 9c 97 52 3c 6f aa 1a bd
       -0.048082747 0.006051176 0.012853529 -0.037760194
0002a0 80 85 60 bb 5b fe 23 3e e0 d5 82 25 c1 81 a8 bd
       -0.003425926 0.16014998 2.2696333e-16 -0.082278736
0002b0 b2 87 32 be 10 c2 ef bd 23 9a bc 3b b5 97 8c 3e
       -0.17434576 -0.11706936 0.005755679 0.27459493
0002c0 ad c9 99 3d 9e c0 49 be 9b 65 97 3c 58 1f e6 3e
       0.0750917 -0.19702384 0.018481066 0.44945788
0002d0 21 86 3d be d9 46 30 3c 2f a5 25 be 6f 24 aa 3c
       -0.18508197 0.010759079 -0.16176294 0.020769326
0002e0 5f fa 32 3b b5 ff 7c 37 91 20 93 bd 0b f2 ce be
       0.0027309877 1.5079907e-05 -0.07183946 -0.4041904
0002f0 9e 75 a9 3c 8e 48 ff ab e4 44 0f bd 61 27 aa bd
       0.020685967 -1.8138978e-12 -0.03497781 -0.08308292
000300 fc 4c b8 3e 55 56 6f 39 d0 ab 39 be 81 9b 00 00
       0.35996234 0.00022824977 -0.18131948 5.5784e-41
000310 d9 e8 2d be fb d7 02 3f 6e e4 6c 3f 21 2e 01 3e
       -0.16983356 0.5111081 0.92536056 0.12615253
000320 16 ee 8e bd f5 a0 65 3e c4 d5 a6 bd a5 69 2c 3e
       -0.06979005 0.22424681 -0.08146241 0.16837175
000330 80 be 9b bd 9f f8 a7 be 1f 5b a0 3d 0c 63 aa be
       -0.07604694 -0.3280687 0.0782988 -0.33278692
000340 43 ef 85 be e3 cd e7 26 22 b4 b2 37 48 5b 99 0d
       -0.26159105 1.6084651e-15 2.1303134e-05 9.451328e-31
000350 e3 84 75 bc 83 ce bc 37 9c 3e 51 be 36 87 ee bd
       -0.014985296 2.2507511e-05 -0.2043404 -0.11646883
000360 50 67 7c bd 5b 52 29 3f fc 25 31 3e 55 da 1c 2f
       -0.061621964 0.6614129 0.17299646 1.4265684e-10
000370 3b 92 43 3e 5f 15 23 be d8 ea a9 3d f6 75 93 be
       0.19098751 -0.15926121 0.08296746 -0.28800935
000380 ef 77 8b 3e c5 75 e9 b5 19 9a 91 b9 96 ab 55 3d
       0.2723994 -1.7394128e-06 -0.00027771367 0.05216559
000390 9e 44 92 3e 44 fa 91 be 73 10 fe 3a d1 90 b3 3d
       0.28567976 -0.2851125 0.0019383564 0.08767856
0003a0 8d bc 4d bd 07 ad 0a be 68 ee 0c 27 e4 f1 d6 3d
       -0.050228644 -0.13542567 1.9558143e-15 0.10495356
0003b0 33 40 13 3e 6d df e7 3d 2b ad 7f ba db 6d f2 be
       0.14379959 0.11321912 -0.0009753282 -0.47349438
0003c0 4d e2 0c be 27 a2 7f 3e a2 ca 09 bc 86 ce 31 3e
       -0.13758202 0.249642 -0.008410128 0.17363939
0003d0 0e e9 29 be 90 a8 70 3c 4d a4 09 be 2e e3 71 3e
       -0.1659281 0.014688626 -0.13441582 0.23621818
0003e0 36 34 38 be a8 52 f5 32 08 d2 78 be 73 7b 95 3e
       -0.17988667 2.8559342e-08 -0.2429887 0.29195747
0003f0 a3 c2 fe bb 7d 7c 90 31 0c 4b 10 bf e5 02 8b bd
       -0.0077746673 4.2051043e-09 -0.5636451 -0.067876615

bias f4 [32]
000000 d7 53 22 ba f2 88 00 3e 37 ea c1 bc 37 5e df 3d
       -0.00061923027 0.1255224 -0.023671253 0.10906642
000010 b2 a8 2f 3e c4 69 26 3e 93 45 e5 bd 95 15 c4 bc
       0.17154196 0.16251284 -0.11194911 -0.023936072
000020 fd a0 9a bd 0e 86 5d bb 4d c4 82 bd 30 c2 66 bd
       -0.07550237 -0.0033801827 -0.06385098 -0.056337535
000030 b9 c5 59 3e bb 60 e4 3d 79 9b ec 3c 16 93 0d be
       0.21266831 0.111512624 0.028882729 -0.1382564
000040 2d 27 ae 3d 08 eb 70 bd a6 0b c7 3c 13 cc 07 3e
       0.08503566 -0.058817893 0.024297547 0.13261442
000050 1e f4 d2 bc e3 d7 02 3f 8c e7 a3 b7 d1 0d 8b 3d
       -0.02575117 0.51110667 -1.9538937e-05 0.06789745
000060 b2 c4 69 99 02 81 cb b7 97 41 4c bc 7b d1 11 a0
       -1.208554e-23 -2.425956e-05 -0.01246681 -1.2351289e-19
000070 b8 00 80 3e 4f b5 59 92 0f 27 b1 3d 6e 08 9b 3d
       0.25000548 -6.8696607e-28 0.08650028 0.07569967

weight f4 [128, 66]
000000 eb 5e 06 80 d3 ef 49 9b bb 9c 77 b0 24 09 42 a1
       -5.85063e-40 -1.6703822e-22 -9.0080804e-10 -6.5741854e-19
000010 ba 36 f4 ad 56 70 31 ab 93 7e 60 93 ca ca 4e a1
       -2.7763892e-11 -6.303893e-13 -2.833518e-27 -7.0063904e-19
000020 83 fa 90 b3 8b 84 05 00 70 2b c1 8c 8f 25 12 ab
       -6.75109e-08 5.06725e-40 -2.9762501e-31 -5.1921743e-13
000030 9b 59 27 a6 ee 03 25 b0 8b bd 00 00 ef 52 80 9e
       -5.80612e-16 -6.0032235e-10 6.7995e-41 -1.3586828e-20
000040 4a 12 00 00 11 88 11 b2 71 10 00 00 7a 28 45 ad
       6.561e-42 -8.471049e-09 5.898e-42 -1.1207141e-11
000050 eb 7f 00 00 7b 16 28 ad a2 6c 00 00 8f 99 fe ab
       4.5888e-41 -9.554686e-12 3.897e-41 -1.8090407e-12
000060 23 c2 05 00 5a 6f 04 80 98 6a 25 a9 35 08 02 00
       5.2882e-40 -4.07287e-40 -3.6729815e-14 1.86615e-40
000070 92 e0 10 a8 0d eb 05 80 30 0e 3b ad 02 51 96 b3
       -8.042302e-15 -5.43498e-40 -1.063287e-11 -6.9996545e-08
000080 fa 95 06 00 47 7f e3 9c b2 a5 01 aa 1f de 1a a5
       6.04814e-40 -1.50545e-21 -1.1514989e-13 -1.3432628e-16
000090 0a 38 99 ac e8 9a 0a b3 5c 27 aa 9c fe be 2a b0
       -4.354743e-12 -3.2271515e-08 -1.125983e-21 -6.2117056e-10
0000a0 e7 10 03 b1 63 bb 05 00 a7 ec ae 9a 28 4e a2 2f
       -1.9072617e-09 5.26399e-40 -7.2347046e-23 2.9523162e-10
0000b0 10 e2 9e ab 1d 5a 28 2e 6d c2 00 80 15 2f 91 a5
       -1.128932e-12 3.8278814e-11 -6.9747e-41 -2.5185394e-16
0000c0 1c 7d 88 a0 d3 d2 26 b3 c4 6f 00 00 da 49 22 a6
       -2.3122087e-19 -3.884163e-08 4.0094e-41 -5.630513e-16
0000d0 39 15 00 80 3e c9 d2 a8 9e e3 05 00 a0 0a 29 af
       -7.613e-42 -2.3401958e-14 5.40831e-40 -1.5374235e-10
0000e0 5e ad 03 00 6c ab 00 00 18 18 26 ae 3f f1 03 00
       3.37699e-40 6.1495e-41 -3.776543e-11 3.62049e-40
0000f0 c8 5e 1f a4 4e bd 06 00 de ee 8d ae c1 b4 70 b7
       -3.4557912e-17 6.18923e-40 -6.454369e-11 -1.43472e-05
000100 da ff 90 08 a6 a2 57 00 08 c2 ce 23 3a f4 4e be
       8.726835e-34 8.048035e-39 2.241674e-17 -0.20210353
000110 80 a2 f0 3e d5 b9 2b be 8c 62 ec bd c8 2b 5b 3e
       0.46998978 -0.16770108 -0.11542234 0.2140342
000120 1c 34 ad 3e 77 53 12 3e 5b 83 e9 bc ba 69 c5 37
       0.3382882 0.14289652 -0.028505018 2.3533463e-05
000130 e6 9a 82 bd 4f fd dc 3d 1d 2b 17 be a0 17 9e be
       -0.06377201 0.10790502 -0.1476254 -0.308774
000140 57 75 e4 b9 18 22 db 3e e0 ca 41 3d 37 f7 bf 3c
       -0.00043574974 0.4279945 0.047312617 0.02343331
000150 b6 ac 99 3c 02 00 a7 be 5c c1 bf 3d d3 4c 93 be
       0.018759113 -0.32617193 0.09363052 -0.2876955
000160 12 0f 87 b5 86 da d8 3d 5d a5 2a 96 a1 e5 cd b6
       -1.006267e-06 0.10588555 -1.378467e-25 -6.1362084e-06
000170 8b 7d e4 bc a9 16 00 00 a8 f3 a9 be a8 c4 00 00
       -0.027891895 8.129e-42 -0.33193707 7.0547e-41
000180 3b 67 6b be 69 ea a7 3d 99 7e ff b0 3f 8a 13 be
       -0.22988598 0.08199007 -1.8589673e-09 -0.14408205
000190 ea 89 1c 3f 3c de 6a bc fe d7 94 bd 4a 46 11 3e
       0.6114794 -0.014335211 -0.0726776 0.1418697
0001a0 7e 1a 5a 3e 29 4b 71 3e cd 3d b0 bd 0c 7c 68 39
       0.21299168 0.23563828 -0.086055376 0.00022171455
0001b0 c9 57 11 3e 3c 95 f5 3c cf 21 33 3d 1a 59 1d be
       0.14193644 0.029978387 0.043733414 -0.15366021
0001c0 2a 02 b9 3c 5a c3 fd 3e 70 76 9e bd 04 a2 56 be
       0.02258404 0.49563104 -0.07737434 -0.20960242
0001d0 43 e0 ab bc f8 02 75 be 26 8d a1 3d b7 36 b8 be
       -0.02098096 -0.23926914 0.0788825 -0.35979244
0001e0 ce 97 c1 b4 07 f5 60 3e b8 da 01 94 53 0f cf b6
       -3.6059504e-07 0.2196847 -6.55597e-27 -6.1708647e-06
0001f0 1f cd 86 3d d8 74 00 00 ac 14 02 be 6a 0f 00 00
       0.065820925 4.1916e-41 -0.12703198 5.53e-42
000200 bf c8 86 be 9f 2a 8d 3e 14 92 36 be 30 84 28 3d
       -0.26325032 0.2757158 -0.17829162 0.04114169
000210 d9 6e d7 22 68 51 45 bc b8 ea 55 bd 2f 7c 3b 3b
       5.839323e-18 -0.012043335 -0.0522258 0.0028607955
000220 fa 13 cb bd 59 70 cb 3d 43 0e 92 bd e2 96 c8 3d
       -0.099159196 0.09933538 -0.071316265 0.097944036
000230 ec b8 39 be f7 5f 2b 37 59 76 69 bb 14 82 9a bd
       -0.18136948 1.0214738e-05 -0.003562352 -0.07544342
000240 9d 29 55 3d af 05 f8 3b f1 77 56 bb e4 55 87 3c
       0.05204164 0.007569037 -0.00327253 0.016520448
000250 a5 fe 3b bd 2d 5f f2 3c 56 b8 ff bc a3 21 7e 3b
       -0.045897145 0.029586399 -0.031215828 0.0038777373
000260 20 dc fe 3c c7 c6 f8 bd 40 e1 69 af f8 7d 91 bd
       0.031110823 -0.12147289 -2.1271251e-10 -0.07104105
000270 06 87 51 16 a9 68 39 b6 44 16 fa 3d 35 81 88 8f
       1.6925491e-25 -2.7628068e-06 0.12211278 -1.3460404e-29
000280 4f d1 19 be cd bf 00 80 b5 fa 6a be 6c 3e 1d 3e
       -0.15021251 -6.8805e-41 -0.229472 0.15355843
000290 31 b9 40 21 b9 ae e0 bd a2 93 22 bd 58 94 67 bc
       6.529723e-19 -0.10970826 -0.039691575 -0.014134489
0002a0 4f 36 30 be 71 0d 12 be b7 a8 0b be 82 d2 66 be
       -0.17208217 -0.1426294 -0.13638578 -0.2254124
0002b0 45 61 19 3e 5c 1f 6e 36 ea 53 9d 3c b3 23 2d 3e
       0.14978512 3.5483017e-06 0.019205052 0.1690815
0002c0 02 5d ea bd c7 74 9a 3e ae 92 91 3b a2 e5 20 be
       -0.11443521 0.3016722 0.0044425344 -0.15712598
0002d0 57 96 4d be 50 b5 ea bd 31 f7 b6 3c b3 a5 82 3b
       -0.20076881 -0.11460364 0.022334667 0.003987038
0002e0 1b bc be 3a 10 96 6b 3e 3d 23 fa ad 80 17 61 be
       0.0014551909 0.23006463 -2.8437358e-11 -0.21981621
0002f0 a7 0e 12 18 d8 91 8b b6 d9 6a 18 be ec a0 47 03
       1.8877455e-24 -4.1595013e-06 -0.14884509 5.8665573e-37
000300 e0 17 d3 3c 9b 9f 00 00 e1 d0 18 be 0d 7d 59 be
       0.02576822 5.7256e-41 -0.14923431 -0.2123911
000310 99 c8 28 bd 10 c9 f1 3b d8 7a d1 b6 67 35 81 3d
       -0.04120693 0.007378705 -6.2429863e-06 0.06309014
000320 5c 4f 94 be 1c ac 17 3e 30 7b 25 3c 86 2a 63 3c
       -0.28966796 0.14811748 0.010100171 0.013865119
000330 a1 ab 7f bd aa cc 14 3e 17 72 3d 3e c5 c2 ba b8
       -0.062419537 0.14531198 0.18500553 -8.90545e-05
000340 f7 29 1a 3d 4f 65 18 3e b6 3e 9f 3c 95 b3 50 3e
       0.037637677 0.14882396 0.019439083 0.20381005
000350 3e cc 78 bb cf 5d 08 3d b9 6b 31 3e 36 71 91 be
       -0.0037963535 0.033292588 0.17326249 -0.28406686
000360 b3 1d 85 3c c3 fa c2 3d d6 f9 a4 bc 79 5d 19 be
       0.016249513 0.09520485 -0.020138662 -0.14977063
000370 e4 57 13 31 54 9c 55 3e 5f e2 15 96 2f 90 68 34
       2.1441275e-09 0.20860416 -1.2107554e-25 2.1659137e-07
000380 ba 89 4e 3d e8 b8 00 00 a8 33 6f 3e e2 67 00 80
       0.050424315 6.6332e-41 0.23359549 -3.7266e-41
000390 f5 dd 7d 3d 89 a8 b1 3d 3d 32 02 ad 36 96 58 bc
       0.061979253 0.08674724 -7.4008e-12 -0.013219407
0003a0 6d 00 b3 be c7 46 2d be e4 a1 8d bc a1 5d 19 be
       -0.34961262 -0.1692153 -0.01728911 -0.14977123
0003b0 00 c9 bb bd 25 90 ed 3d 14 d2 60 be 10 4b 10 b8
       -0.09169197 0.11599759 -0.21955138 -3.4402183e-05
0003c0 f1 e3 c0 bd 3b ae 48 3c f1 f8 95 bc 8f 7f a5 3d
       -0.094184764 0.012248571 -0.018307181 0.080809705
0003d0 c7 a1 86 bb 69 ab 4b bd 4d f1 04 3e 6d bc 40 bd
       -0.004108641 -0.049724016 0.12982674 -0.047054697
0003e0 22 56 c4 3d 65 43 3c be e8 03 e8 bd 3b 2a 68 bb
       0.09586741 -0.18385084 -0.1132887 -0.0035425562
0003f0 52 b7 1d 30 58 ba ea 3e 03 c0 2c 96 57 d8 80 b6
       5.737678e-10 0.45845294 -1.3954638e-25 -3.8398825e-06
