test/models/emb_weight.npy (npy, 12672 bytes, 1 tensors)

array f4 [98, 32]
000000 0c 54 30 3d 30 b4 80 ba a7 7a a5 bc 95 59 ec 3b
       0.043048903 -0.0009819325 -0.020200087 0.0072128274
000010 ed 70 0b 3d da b2 21 3b 0d 21 8e bb 82 e6 4a 3c
       0.03404324 0.0024673254 -0.004337436 0.012384059
000020 69 26 58 bb 81 12 3a bc 98 e9 93 bb 49 04 30 3e
       -0.0032981879 -0.011356951 -0.0045139305 0.17189135
000030 66 08 aa bd 07 7e 90 bd f6 b5 0f bb b5 5d 6e bc
       -0.08302383 -0.07055288 -0.0021928526 -0.014548709
000040 ae ba 8a 3b 44 cd c2 ba 82 c2 f5 3b 3d 3e ad 3a
       0.0042336797 -0.0014862199 0.007499994 0.0013217401
000050 21 43 54 3d 5b 8a 0e bd 42 79 9f 3b 1f 07 8a 3c
       0.05182183 -0.034799915 0.00486675 0.016849099
000060 f0 0e c6 bb c9 06 f7 be 70 d9 61 be 13 d0 8e 3d
       -0.006044261 -0.48247364 -0.22055602 0.06973281
000070 b5 45 28 3c d9 a1 84 bb 13 e3 16 3e 04 c3 43 bc
       0.010270526 -0.004047614 0.1473506 -0.011948351
000080 cd 18 a6 3d 98 6f bc 3b 01 a4 da bc 29 e2 70 bb
       0.08110199 0.0057506077 -0.026689531 -0.0036755896
000090 74 d9 ca bb 60 ee ef 3a cb f4 00 bc 31 30 9e ba
       -0.006190473 0.0018305294 -0.007870863 -0.0012068806
0000a0 9b 36 5f 3b 14 13 a7 3b 51 c2 ce 38 4e 2f 17 be
       0.0034059647 0.00509871 9.85904e-05 -0.14764139
0000b0 f7 be 93 be 73 e0 8f 3c 06 60 d7 3a 24 a8 55 3b
       -0.28856632 0.01756308 0.0016431815 0.003260144
0000c0 53 c4 e2 bb 87 08 26 bb ba af 59 b8 9c e6 80 3b
       -0.0069203763 -0.0025334673 -5.190049e-05 0.003933741
0000d0 87 e3 02 3e a5 40 10 bd 40 98 1d 3a d2 94 41 be
       0.12782107 -0.0352179 0.0006011762 -0.18904427
0000e0 aa 28 af 3b 82 58 8e 3d 51 cb 67 3c 96 ba f3 bd
       0.0053454237 0.06950475 0.0141475955 -0.11900823
0000f0 3c f6 1a b9 37 4d 4f bb 55 93 dd bc 83 4f 5f bb
       -0.00014778314 -0.0031631717 -0.027047792 -0.0034074492
000100 18 db 80 bc ea e1 97 3b 90 c4 14 3d 42 39 0d bc
       -0.015729472 0.0046350854 0.03632027 -0.008619608
000110 2d f6 9d 3b ee 64 0f 3c 67 e0 96 bb 9b b7 34 bc
       0.004820606 0.008752091 -0.0046043876 -0.011030103
000120 3e 5d b0 bb 9f 45 53 3b 1e b4 93 3c 79 2b 38 3e
       -0.005382209 0.0032237542 0.018030223 0.17985334
000130 2e 39 b9 3e 7d a5 d0 3b f8 63 4b 3b 07 65 27 3b
       0.36176437 0.006367384 0.0031034928 0.0025542395
000140 fd c3 60 bc b1 ca 80 bb df 33 2c bb 1e ea b1 bb
       -0.013718602 -0.0039304127 -0.0026276035 -0.0054295203
000150 ef b6 28 bd e1 92 83 bd dc dd 93 3a 38 e4 06 be
       -0.041190084 -0.06424499 0.0011281329 -0.13172996
000160 45 d0 9e ba 86 22 22 3e e8 e1 b0 3d 5b b7 f9 be
       -0.0012116513 0.15833482 0.08636838 -0.48772702
000170 ec e9 58 bb 1e e0 49 bb a4 8f 06 bc 92 53 8c ba
       -0.0033098413 -0.003080375 -0.0082129575 -0.0010706058
000180 b8 1a 84 bc 6b e3 97 bb 09 35 25 3e 3a 25 39 bc
       -0.016126022 -0.0046352646 0.16133513 -0.011300379
000190 c4 84 6d 3c a8 2d aa 39 11 d8 c2 3b 6a 6d 0d bc
       0.014496986 0.00032458943 0.0059461673 -0.008632043
0001a0 38 85 ea 3a 77 e6 1e 3c c2 4f 3b 3b 96 a8 20 be
       0.0017892485 0.009698502 0.0028581475 -0.1568931
0001b0 65 e4 3d be ba 47 60 bd 91 64 4d 3b 5e 0c 60 3c
       -0.18544157 -0.054755904 0.003134046 0.013674824
0001c0 e1 cb f0 ba 5c 33 5e bb c6 f2 0a bc 08 61 96 bb
       -0.0018371308 -0.0033905124 -0.008480733 -0.0045892037
0001d0 a1 bc 53 be b7 f1 45 3d 16 18 3e 3a 6b b7 08 3a
       -0.20677425 0.04832622 0.0007251514 0.00052153197
0001e0 cd e7 b7 3b 17 b3 5e 3c b5 db 82 bc cf 7b dd bd
       0.0056123496 0.013592503 -0.015973905 -0.1081463
0001f0 2f 81 b4 bb f9 26 a4 3b 07 83 fb bd af 74 5d 3c
       -0.005508564 0.0050095287 -0.12280851 0.013516589
000200 ff fe ac 3c 51 ff 96 bb be 2e 61 3d 38 e6 c4 bb
       0.021117685 -0.004608073 0.054976217 -0.0060088895
000210 50 a3 5c bb 63 bd a5 38 c4 27 fe 3b c7 a8 71 bb
       -0.0033666678 7.903089e-05 0.0077562053 -0.003687428
000220 82 13 39 bb 2c c5 91 39 04 17 9e bb e1 b7 27 be
       -0.0028240387 0.0002780346 -0.004824521 -0.16378738
000230 53 36 1c bd 20 80 c6 bd 99 25 5c bb 87 24 04 3c
       -0.038137745 -0.09692407 -0.0033591746 0.008065349
000240 bd 3b 3a 3b 60 f7 ae b9 77 46 2e bb cf 6c cf bb
       0.0028416954 -0.00033372175 -0.0026592293 -0.0063301097
000250 5c 97 31 3d da 67 ab 3c 81 89 50 3b 61 83 cf 3d
       0.04335724 0.020923544 0.003182024 0.101324804
000260 89 4e 69 38 90 1a ad bc 7d a1 31 3d 46 80 51 3d
       5.562467e-05 -0.02113083 0.043366898 0.05114772
000270 25 d5 0b b9 11 d6 c7 3a e9 23 15 bd 69 e2 e7 3b
       -0.00013335476 0.0015246292 -0.0364112 0.0070765507
000280 4a a7 1a 3d 54 9a a8 bb 51 be 14 3d bb e8 21 ba
       0.037757196 -0.0051453505 0.036314312 -0.0006176342
000290 da 8c ed ba b4 f3 56 3a 5b 4e 30 3b b1 dd 95 39
       -0.0018123642 0.0008199767 0.0026902172 0.00028584668
0002a0 47 9d eb 3a 7e a9 d8 bb 1e 0a 91 bb 3b 1c 39 3d
       0.001797595 -0.006612002 -0.004426255 0.04519294
0002b0 91 d9 ae be 23 1c 83 bd e1 3c a3 3b 47 4e 62 3b
       -0.34150365 -0.06401851 0.0049816226 0.003453152
0002c0 ec 07 43 3c f5 9b b3 bb 82 e1 f6 bb a7 65 e5 3a
       0.011903744 -0.005481238 -0.007534207 0.0017501608
0002d0 71 03 3b bd 66 f4 4e 3d e0 a9 d6 3b 89 c4 e4 3d
       -0.04565758 0.050526045 0.0065510124 0.111702986
0002e0 51 cc cd 3a 7d 48 64 3e 86 dd e1 3d 97 55 23 3e
       0.001570115 0.22293277 0.1102858 0.15950619
0002f0 63 09 d8 3a 62 1f 91 3b ff 85 4d bc cc 38 31 3b
       0.001648229 0.00442879 -0.012544154 0.002704191
000300 cf 40 06 3e 6b f1 a0 3b 77 b2 a9 bd df cc c9 3a
       0.1311066 0.0049115918 -0.082859926 0.0015396139
000310 b9 81 09 3b 37 34 e6 3a 02 d1 03 bc 2b 47 27 39
       0.0020981862 0.0017563169 -0.008045437 0.00015952873
000320 bb 4a 10 bb 8c 10 3d 3b 5b 58 e7 3b ec 52 03 be
       -0.00220172 0.0028848974 0.0070600933 -0.12824601
000330 c3 3d 0f 3e 21 5f 4a 3e 08 b1 e4 bb 23 72 83 bb
       0.13988404 0.19762851 -0.0069791116 -0.004011409
000340 f8 da 87 bb 9a d1 c5 39 c1 00 da 3b 8b 24 ec 39
       -0.004145976 0.00037730933 0.006652922 0.00045040654
000350 8c 43 ff bd 71 99 29 bc dd eb aa bb f0 2b 3b be
       -0.124640554 -0.010351525 -0.0052161054 -0.1827848
000360 d6 c2 14 ba ab 0d d0 3e f1 33 20 bd 1c 0d 8c 3e
       -0.0005674785 0.40635428 -0.039112035 0.27353752
000370 28 b1 ed bb 72 a7 bf bb 42 3e f2 3d cc af 4a bb
       -0.0072537847 -0.0058488185 0.11828281 -0.0030927537
000380 3b 43 e5 3d 29 e9 62 bc 8c 67 54 3c c6 83 69 bb
       0.11194464 -0.013849535 0.012964141 -0.0035631522
000390 56 69 e7 3c 7e 8c 23 bc 69 99 ef 3b 5c 82 09 3c
       0.02824847 -0.009982226 0.007311989 0.0083928965
0003a0 8b 3b e2 3b 3f 42 b5 39 17 8f de bb 35 60 06 bc
       0.0069040707 0.00034572367 -0.00679196 -0.0082016485
0003b0 99 aa 91 3b 2c db b0 3c aa 5b 4c bc b2 9d 80 3b
       0.0044453857 0.021588884 -0.012473026 0.0039250487
0003c0 1d 03 e6 3b ad ad c5 3a 4c c2 88 ba 82 c0 b1 ba
       0.007019414 0.0015081667 -0.0010433882 -0.00135614
0003d0 9a ec 4c be c4 d5 0b bd d7 b0 01 3c d8 f0 c4 be
       -0.20012131 -0.03413941 0.007915697 -0.38465
0003e0 b1 22 dd 3a 15 46 f3 3e 36 a1 31 be 73 68 48 3e
       0.0016871301 0.47514406 -0.17346653 0.19571094
0003f0 b5 0c 36 bc 84 cd b8 3b 0b 3f a8 3c 86 2d 21 3c
       -0.011111428 0.0056397337 0.020537874 0.009837514
